guitar_audio/models/knob_regressor_net.pth (torch, 447773 bytes, 20 tensors)

network.0.weight f4 [256, 256]
0.013549662 -0.0012099878 0.0030098527 -0.0022857608 0.0018642157 -0.003958491 0.001106373 9.0395064e-05
-0.0252897 -0.008645298 0.004750613 -0.002155029 -2.2927212e-05 -0.021336066 5.7655143e-05 -0.008583914
0.015601042 -0.005646655 -0.0007081949 -0.0008997047 -0.008227111 -0.0048227203 -0.0038267903 -0.0021284856
8.9891284e-05 0.004008488 -0.006329208 -0.0067536305 0.00527758 0.0026512502 -0.0038212799 -0.005438121
-0.009009759 -0.0019618769 0.02372207 -0.0016572331 0.003992294 0.0012937763 -0.010978146 0.006986374
-0.0021584104 0.003577387 0.008217215 0.0037404269 -0.002203353 0.004648114 -0.000393638 -0.0007991303
0.0035711522 0.0042119995 0.00306741 -0.00064005685 0.0011843931 -0.004089213 -0.01024722 0.003280519
0.0028407495 -0.0077593774 -0.0024693809 -0.0017702495 -0.0035605445 -0.004164282 -0.00056329754 -0.004794486
0.0049732355 0.012039227 -0.00038337524 0.0012346128 0.002624081 -0.0031911838 -0.001196939 -0.008246758
0.00027103632 0.033839498 0.0026866582 -0.006466311 0.0042110328 -0.0033505762 -0.00030694017 0.0031460207
0.0019615155 -0.0027021992 0.0031024707 0.0022373581 -0.0049758093 -0.0032118252 0.0009980918 -0.0026524605
0.005244321 0.0050828406 -0.006839218 -0.03470185 -0.0011601584 0.0047598374 0.00065188494 0.0030585579
0.004270178 -0.004831504 0.0037570905 0.0068569966 -0.00022366404 -0.0028808324 -0.001051276 0.0047613443
-0.001390247 0.0020796636 -0.0024948018 0.0044463226 0.00027788687 -0.0025770045 -0.008856348 0.00088204973
0.0021734436 0.0023139163 0.00077906734 0.007733196 0.010634712 -0.0022127929 -0.0007580533 0.0014050447
-0.0013333618 -0.0023833972 -0.0033965595 0.006796206 -0.003962771 0.0013976505 -0.0018998401 0.003045669
0.0054502045 -0.0069141057 0.0070639984 -0.0033503075 -0.005355929 0.0042900466 -0.0011932756 0.0010610346
0.024187272 0.0042324574 -0.021265514 0.004381433 0.0066552623 -0.0021626127 0.0017953574 0.0023474677
0.000988664 0.0032507398 0.0009932682 0.038202465 -0.008398914 0.005689033 -0.013510552 -6.921148e-05
-0.008342246 -0.02019703 0.028265817 0.0033316407 0.0020384144 0.0002757034 0.0023795986 0.0018290547
0.0011655946 -0.0005934019 -0.0061158077 0.006166618 -0.0006599458 -0.00042469092 -0.0012794331 0.001068021
0.0064913454 -0.003955616 0.0047029704 -0.006049338 -0.00032960618 -0.002015333 -0.0038241388 -0.0027863078
-0.00416173 0.0038701924 0.001045058 -0.0059847157 -0.0069628544 0.0013087945 -0.0011497723 -0.004400669
-0.007748557 0.00258535 -0.0026004184 0.0045252116 0.007297031 -0.0063112467 0.00011010686 -0.19926883
0.005684086 -0.0012758237 0.006605083 0.0035325533 -0.0073669404 -0.007123712 -0.00025937235 0.0037470711
0.003262531 0.08373981 -0.005277418 -0.0057133157 -0.006402849 -0.0045422525 0.005808613 -0.0028231365
-0.0029449635 0.0077699027 0.006563217 0.0044482583 0.0035015647 -0.0010793605 -0.0042285076 0.002441155
-0.0005560863 -0.08853637 0.016234364 0.004802056 -0.00365106 0.013625977 -0.0024559598 -0.00015109897
-0.044152033 -0.020561913 0.009228018 0.00060313934 -0.0050342255 -0.003140406 0.0055836476 -0.0066275415
0.0031844177 -0.005960802 -0.022070948 -0.0032024125 0.0001290018 0.013615213 -0.003886991 0.0032405576
-0.00084769813 -0.009112534 0.0019142117 0.0032293473 -0.0054002497 0.0076297084 0.0062971055 -0.00317867
-0.063414715 0.006752998 0.0042898753 -0.00073260156 -0.0046655852 -0.006687931 0.0017159298 -0.0044618933
00000000: 67ff 5d3c 7498 9eba f340 453b b4cc 15bb
00000010: b358 f43a 3bb6 81bb b803 913a 7b92 bd38
00000020: 582c cfbc 02a5 0dbc 08ab 9b3b 633b 0dbb
00000030: d053 c0b7 f9c8 aebc bdd2 7138 8ba3 0cbc
00000040: 839b 7f3c 9307 b9bb 28a6 39ba 29da 6bba
00000050: 01cb 06bc e907 9ebb e3ca 7abb 107e 0bbb
00000060: 0484 bc38 a259 833b 3f65 cfbb 8f4d ddbb
00000070: 8def ac3b 99c0 2d3b 706e 7abb 4432 b2bb
00000080: ab9d 13bc d592 00bb c954 c23c 8437 d9ba
00000090: cad1 823b ee93 a93a afdd 33bc f4ed e43b
000000a0: 1e74 0dbb 9872 6a3b 7fa1 063c f321 753b
000000b0: 2166 10bb 354f 983b 3361 ceb9 ba7c 51ba
000000c0: fe09 6a3b d004 8a3b 9a06 493b 7dc9 27ba
000000d0: a33d 9b3a cefe 85bb f5e3 27bc fafd 563b
000000e0: de2b 3a3b 6042 febb 56d5 21bb b707 e8ba
000000f0: 0658 69bb 8874 88bb 42aa 13ba 101b 9dbb
00000100: 86f6 a23b 2e40 453c c1ff c8b9 bbd2 a13a
00000110: c6f8 2b3b 2e23 51bb 9ce2 9cba 691d 07bc
00000120: e119 8e39 499b 0a3d a512 303b 59e3 d3bb
00000130: b4fc 893b 5795 5bbb d0ec a0b9 782d 4e3b
00000140: c58c 003b 6117 31bb d252 4b3b a4a0 123b
00000150: 1d0c a3bb 7c7d 52bb 67d2 823a e7d4 2dbb
00000160: 8ed8 ab3b f58d a63b 851b e0bb 8723 0ebd
00000170: 7510 98ba 69f8 9b3b 42e3 2a3a 1672 483b
00000180: d9ec 8b3b 9851 9ebb 8539 763b a8b0 e03b
00000190: 5c87 6ab9 59cc 3cbb f8ca 89ba 0d05 9c3b
000001a0: f338 b6ba f74a 083b d47f 23bb 75b2 913b
000001b0: 58b1 9139 f6e2 28bb 371a 11bc 5b39 673a
000001c0: 5570 0e3b 13a5 173b 533a 4c3a c066 fd3b
000001d0: 373d 2e3c 8104 11bb 19b8 46ba 7a29 b83a
000001e0: 33c4 aeba c532 1cbb d098 5ebb b5b2 de3b
000001f0: 22da 81bb 5e31 b73a 0e04 f9ba d999 473b
00000200: a197 b23b b98f e2bb 1d79 e73b d590 5bbb
00000210: ca80 afbb 8593 8c3b af67 9cba 6a12 8b3a
00000220: 6324 c63c 6db0 8a3b 0435 aebc 2092 8f3b
00000230: 6314 da3b 9fba 0dbb 3352 eb3a f9d7 193b
00000240: 0f96 813a 5d0a 553b 8d30 823a 307a 1c3d
00000250: 999b 09bc 116b ba3b 5d5b 5dbc a125 91b8
00000260: eaad 08bc 3e74 a5bc b78d e73c a857 5a3b
00000270: eb96 053b 498c 9039 0af3 1b3b e4bc ef3a
00000280: ddc6 983a 878e 1bba 1d67 c8bb 5711 ca3b
00000290: 3700 2dba 0da9 deb9 a7b2 a7ba d7fc 8b3a
000002a0: 5ab5 d43b 1d9e 81bb 601b 9a3b 8639 c6bb
000002b0: fece acb9 ad13 04bb 679e 7abb 7d9a 36bb
000002c0: 1f5f 88bb 0ea3 7d3b 54fa 883a 6f1b c4bb
000002d0: a828 e4bb db8b ab3a f5b3 96ba 7d33 90bb
000002e0: 9be7 fdbb fa6e 293b c86b 2abb 3a48 943b
000002f0: ef1b ef3b 93ce cebb 2ce9 e638 210d 4cbe
00000300: 9241 ba3b 8a39 a7ba 746f d83b 6982 673b
00000310: 6066 f1bb 076e e9bb 5efc 87b9 6c91 753b
00000320: 30d0 553b c77f ab3d 31ee acbb c436 bbbb
00000330: fece d1bb 2dd7 94bb 2d56 be3b 5f04 39bb
00000340: 4a00 41bb ab9a fe3b 4110 d73b b2c2 913b
00000350: 827a 653b 5479 8dba 4b8f 8abb c9fb 1f3b
00000360: 52c6 11ba 8e52 b5bd eefd 843c 915a 9d3b
00000370: 9f46 6fbb 7d3f 5f3c 2bf4 20bb 5270 1eb9
00000380: c3d8 34bd 7571 a8bc 1d31 173c ff1b 1e3a
00000390: 25f6 a4bb 45cf 4dbb 08f7 b63b d92b d9bb
000003a0: aab1 503b d552 c3bb 22ce b4bc 91df 51bb
000003b0: a844 0739 5812 5f3c e3bc 7ebb 895f 543b
000003c0: 0f38 5eba bd4c 15bc 49e6 fa3a 75a3 533b
000003d0: 94f4 b0bb a202 fa3b f357 ce3b 3c51 50bb
000003e0: 93df 81bd 4148 dd3b 1592 8c3b 0f0c 40ba
000003f0: c4e1 98bb 6e26 dbbb 0de9 e03a 1335 92bb

network.0.bias f4 [256]
1.4977427e-05 5.3432746e-07 3.7874443e-06 -2.827002e-06 7.752329e-06 -1.4867138e-06 1.9800466e-06 8.822304e-06
-3.2298163e-07 -4.517775e-06 2.3334262e-05 6.7670308e-06 5.382234e-06 -1.3435595e-06 9.831778e-07 2.5931367e-06
4.3704354e-06 6.11723e-40 7.3223755e-06 -6.3655915e-07 1.0980619e-05 -5.6497333e-07 6.232944e-06 -1.7035703e-06
8.58362e-06 -2.5973436e-06 7.1784348e-06 2.1849696e-06 6.4695087e-07 4.8490306e-06 1.4857369e-05 -7.020233e-06
1.7344748e-05 -1.1646567e-05 -6.2278455e-06 -2.050774e-05 -2.9593346e-06 8.643009e-06 2.5020843e-05 -4.1740495e-06
6.95009e-06 -1.6647378e-05 -5.6706034e-07 1.4168422e-05 3.2272694e-06 -1.0012648e-07 -1.7467163e-06 1.1118766e-05
-4.2170236e-06 -1.1662223e-07 1.2963372e-05 3.6517333e-06 2.383784e-08 -6.410766e-06 -8.480665e-07 6.03544e-08
4.7768367e-07 5.5730534e-06 -1.2252038e-05 3.2974935e-06 -1.4984442e-06 4.97663e-40 -5.8609266e-06 -2.967957e-06
-7.710376e-06 1.4996217e-06 -7.464273e-07 -2.9714322e-06 3.9090783e-06 3.8583366e-06 -1.6460102e-06 1.8010383e-06
5.02483e-40 3.4108956e-07 -5.8993373e-06 -6.3124357e-06 3.1649015e-06 4.1660523e-06 2.9589059e-05 6.318867e-06
-3.0639233e-06 -7.7627365e-06 -4.94068e-40 -8.429391e-06 -2.4036879e-05 -1.2712897e-07 -1.8229591e-06 -2.3065948e-05
5.853947e-06 -4.7231572e-07 -2.4582863e-07 2.0040518e-06 -5.596583e-06 1.1748939e-06 1.2681694e-05 2.8601817e-06
-4.6538285e-06 1.2583841e-06 -7.674788e-06 -3.164224e-06 -3.3889228e-06 -3.0553133e-06 4.1178923e-06 -6.18528e-40
-3.123985e-06 3.951724e-06 9.476186e-06 1.8155215e-05 4.286359e-06 -3.5061182e-06 -1.1061869e-05 2.9668981e-06
2.4439228e-06 2.028312e-06 1.056485e-05 1.8991384e-06 -8.4884397e-07 2.6344396e-06 1.5609249e-06 1.3877473e-05
4.8430547e-06 -2.1050586e-05 2.5795098e-06 -1.2366104e-05 -8.503079e-06 -4.8707426e-07 -4.51263e-06 1.3292605e-05
-2.217174e-06 -5.4097122e-06 -5.8843143e-06 -2.3976975e-06 -4.7267754e-06 1.2699847e-05 1.0218938e-05 -2.5934676e-06
1.9787199e-06 -9.719307e-06 -1.6608196e-06 -5.165063e-06 1.6660708e-05 1.3709988e-05 -6.0472785e-06 -9.85009e-07
-1.0056579e-05 -6.00727e-40 -9.187407e-07 -6.4184957e-07 4.1819694e-06 6.48e-06 -4.5524253e-06 -1.8844231e-06
-9.929838e-08 2.5588554e-06 1.3909225e-06 -2.2652914e-06 3.822419e-06 3.1229915e-06 1.2319458e-06 -5.0443264e-06
1.05705085e-05 -1.5297464e-05 2.7163325e-05 1.5887056e-06 -2.6562875e-06 -1.81317e-05 -3.0739695e-06 7.0613237e-06
-2.7105887e-06 1.009866e-06 -5.961181e-06 1.754011e-06 2.9078508e-06 -8.6733303e-07 -2.9108674e-06 1.9722063e-05
3.2972328e-06 9.7075645e-06 2.3903583e-06 -1.3070895e-06 -6.3887746e-06 -1.3821433e-06 1.2169164e-06 2.4746823e-06
2.3054146e-05 1.942663e-06 -1.774774e-06 2.7896251e-06 1.0065535e-05 -7.7930076e-07 5.82896e-06 6.497897e-07
2.655236e-06 1.7122647e-05 -1.5446065e-05 -2.372998e-06 2.7718925e-06 -3.2040145e-05 1.568229e-06 -3.029817e-06
-3.8121195e-06 3.1850107e-06 3.231094e-06 -5.5626197e-06 -8.176342e-06 5.10117e-40 6.474459e-06 -9.30142e-06
1.6200778e-05 -1.910578e-06 -9.460528e-07 1.4782831e-06 -9.5944815e-06 2.068836e-06 1.1731433e-06 1.0192093e-06
7.731411e-06 -5.6216454e-06 -1.3902054e-06 1.0031705e-06 3.3519882e-07 -1.3362982e-06 -2.5804047e-06 -4.560962e-06
-2.1858762e-06 -7.6289875e-06 -1.07278665e-05 -4.3922398e-08 -8.8319774e-07 -1.0109665e-05 -7.821222e-07 -2.3621837e-06
8.523321e-07 -1.0980038e-07 3.9163174e-06 8.201259e-06 -2.0867361e-05 -2.043497e-05 -2.7527269e-05 3.0906012e-06
-9.2620644e-07 -3.4785812e-06 3.589991e-06 -4.564407e-06 7.091506e-06 -1.3064616e-05 -3.4559855e-06 -1.2521e-05
-2.5915078e-06 -1.872306e-06 2.2529434e-06 -4.93964e-06 -7.0715197e-07 8.714207e-06 -2.3245913e-07 1.0959116e-06
00000000: 8f47 7b37 b46e 0f35 cc2b 7e36 86b7 3db6
00000010: 0010 0237 198b c7b5 f1e0 0436 8203 1437
00000020: 4266 adb4 6497 97b6 f2bd c337 5a10 e336
00000030: 0a99 b436 5a54 b4b5 bbf5 8335 c005 2e36
00000040: c1a5 9236 3ca9 0600 bab2 f536 03e0 2ab5
00000050: 6639 3837 aca8 17b5 9524 d136 3ba6 e4b5
00000060: 5e02 1037 064e 2eb6 49de f036 7ea1 1236
00000070: 20aa 2d35 dbb4 a236 ea43 7937 588f ebb6
00000080: 907f 9137 a065 43b7 c9f8 d0b6 0908 acb7
00000090: fb98 46b6 7101 1137 dae3 d137 d00e 8cb6
000000a0: d234 e936 f9a5 8bb7 1738 18b5 e9b4 6d37
000000b0: 1194 5836 1d05 d7b3 b770 eab5 bd8a 3a37
000000c0: f57f 8db6 c071 fab3 427d 5937 4d10 7536
000000d0: f7c3 cc32 101c d7b6 b0a6 63b5 2f9c 8133
000000e0: 2c3a 0035 2a00 bb36 1a8e 4db7 824a 5d36
000000f0: 271e c9b5 486b 0500 faa8 c4b6 1d2d 47b6
00000100: d05b 01b7 9c46 c935 185e 48b5 d168 47b6
00000110: ba2a 8336 dc76 8136 7bec dcb5 34bb f135
00000120: b878 0500 fe1e b734 ecf2 c5b6 69cf d3b6
00000130: 9864 5436 1eca 8b36 0536 f837 a706 d436
00000140: cd9d 4db6 b33c 02b7 4361 0580 f56b 0db7
00000150: cea2 c9b7 f280 08b4 66ac f4b5 bf7d c1b7
00000160: 066d c436 9492 fdb4 6efa 83b4 597d 0636
00000170: 48ca bbb6 0cb1 9d35 76c3 5437 8cf1 3f36
00000180: 1528 9cb6 c0e5 a835 f7c2 00b7 f458 54b6
00000190: 406d 63b6 e209 4db6 6d2c 8a36 34bc 0680
000001a0: a7a5 51b6 0d99 8436 e9fb 1e37 074c 9837
000001b0: 8bd3 8f36 a74a 6bb6 5e96 39b7 ec1a 4736
000001c0: 4602 2436 231e 0836 af3f 3137 e6e5 fe35
000001d0: 1ddc 63b5 54cb 3036 f980 d135 4bd3 6837
000001e0: 8681 a236 ca95 b0b7 a41b 2d36 0378 4fb7
000001f0: 72a8 0eb7 7dbf 02b5 326b 97b6 4e03 5f37
00000200: c2ca 14b6 1385 b5b6 e071 c5b6 21e8 20b6
00000210: b19a 9eb6 6d11 5537 0172 2b37 6f0b 2eb6
00000220: 26ca 0436 1b10 23b7 54e9 deb5 8e4f adb6
00000230: 99c2 8b37 f303 6637 bae9 cab6 a734 84b5
00000240: aeb8 28b7 958a 0680 619f 76b5 914b 2cb5
00000250: d852 8c36 c76e d936 09c1 98b6 49ec fcb5
00000260: dd3d d5b3 cdb8 2b36 bcaf ba35 6905 18b6
00000270: 5442 8036 9694 5136 5659 a535 6f42 a9b6
00000280: fd57 3137 0e53 80b7 ccdc e337 823b d535
00000290: ac42 32b6 8719 98b7 654a 4eb6 4ff0 ec36
000002a0: 8fe7 35b6 bb8a 8735 2806 c8b6 5c6b eb35
000002b0: 7f24 4336 acd2 68b5 5258 43b6 cf70 a537
000002c0: 0746 5d36 acdd 2237 0b6a 2036 416f afb5
000002d0: 285f d6b6 1582 b9b5 ee54 a335 b812 2636
000002e0: 6764 c137 b25e 0236 c534 eeb5 6535 3b36
000002f0: 25df 2837 2431 51b5 6396 c336 356d 2e35
00000300: 9b30 3236 9ba2 8f37 2c92 81b7 cc3f 1fb6
00000310: c004 3a36 d862 06b8 f07b d235 dc53 4bb6
00000320: b7d3 7fb6 11be 5536 c6d5 5836 8aa6 bab6
00000330: 1f2d 09b7 008e 0500 2e3f d936 4b0d 1cb7
00000340: e8e6 8737 7b37 00b6 41f4 7db5 6c69 c635
00000350: fcf7 20b7 55d6 0a36 e674 9d35 c4cb 8835
00000360: 28b6 0137 91a1 bcb6 1897 bab5 ada4 8635
00000370: 60f5 b334 db5a b3b5 042b 2db6 5e0a 99b6
00000380: 11b1 12b6 81fc ffb6 d6fb 33b7 30a5 3cb3
00000390: e314 6db5 ae9c 29b7 07f3 51b5 0286 1eb6
000003a0: d1cb 6435 66cb ebb3 e968 8336 2498 0937
000003b0: 510c afb7 c46b abb7 5cea e6b7 2068 4f36
000003c0: 6ca0 78b5 9271 69b6 93eb 7036 f527 99b6
000003d0: 93f3 ed36 1930 5bb7 61ed 67b6 4911 52b7
000003e0: c4e9 2db6 f24b fbb5 4631 1736 2fbf a5b6
000003f0: 1dd3 3db5 3c33 1237 e199 79b4 3c17 9335

network.1.weight f4 [256]
0.12143456 0.08061534 0.06073988 0.08589921 0.104492694 0.109238714 0.11344762 0.081637576
0.0741442 0.07215072 0.1273529 0.15441827 0.10197633 0.10757513 0.085675664 0.10351087
0.13113487 -4.95129e-40 0.13277249 0.106674716 0.14252841 0.08644725 0.07360897 0.105730146
0.086886905 0.12556016 0.08059329 0.085812286 0.095886864 0.14272396 0.087061465 0.087138146
0.09392192 0.16044469 0.05012357 0.104704656 0.09815665 0.14143148 0.10661187 0.1098241
0.086633414 0.12381508 0.120018505 0.084885515 0.13041343 0.1022482 0.091875546 0.12197244
0.10556223 0.070086226 0.12812772 0.07879064 0.090386525 0.07888373 0.09659837 0.089221306
0.1077828 0.09053695 0.09034759 0.036515515 0.15264052 -5.96307e-40 0.085903935 0.12219595
0.11103934 0.1187019 0.095061 0.10034614 0.11399848 0.12831323 0.090597324 0.09627064
-4.1129778e-12 0.07064437 0.0790677 0.13451755 0.07269461 0.09558048 0.120027855 0.11391557
0.09774852 0.12439092 -4.96062e-40 0.06896725 0.1511687 0.090102546 0.110478595 0.13470957
0.08637385 0.125092 0.09921102 0.11043613 0.07700551 0.11045 0.13868585 0.108041696
0.10154506 0.14753151 0.1266362 0.08006592 0.20442827 0.101380244 0.11679385 -5.05255e-40
0.09963134 0.13195205 0.13894872 0.08848566 0.07838318 0.1160582 0.09377298 0.13331893
0.0963464 0.08957392 0.12523834 0.12669489 0.11613556 0.10646051 0.10754881 0.08581672
0.11305858 0.12292537 0.09304252 0.1228657 0.123449996 0.13451393 0.084914215 0.08882737
0.08763242 0.09121288 0.09327972 0.1101578 0.11103222 0.07339267 0.11421333 0.08918113
0.122441426 0.11920357 0.074816376 0.089395374 0.1253564 0.12749223 0.10575819 0.08602851
0.16872951 -4.91679e-40 0.14527832 0.1091255 0.08187731 0.073507234 0.0879224 0.08722667
0.09655982 0.06480128 0.07903814 0.08620367 0.06951017 0.108062126 0.119950674 0.107030556
0.18343583 0.09462267 0.08987647 0.11270411 0.15438293 0.09156099 0.09889239 0.12800018
0.096698366 0.114813484 0.0669009 0.07440275 0.16405308 0.09709815 0.13752489 0.079682045
0.11898417 0.08514806 0.1342409 0.10039831 0.084133156 0.07100848 0.07614228 0.13571636
0.060747117 0.09474973 0.09532952 0.12898858 0.11353134 0.094007336 0.10751947 0.15505786
0.09367933 0.116542004 0.07861909 0.081303835 0.102014236 0.12794405 0.19595425 0.08078875
0.12243157 0.10460286 0.09566051 0.082221456 0.10062348 -4.92346e-40 0.1201835 0.13458912
0.06523526 0.1861473 0.12851909 0.11151282 0.12503795 0.113392495 0.096277915 0.10977808
0.09536943 0.10800017 0.103648454 0.0758275 0.10934024 0.13978279 0.1412112 0.09759028
0.0915533 0.07881675 0.1341613 0.12388346 0.0813856 0.12454494 0.096360154 0.12183741
0.09432923 0.09081331 0.12636738 0.096228056 0.11201005 0.11198165 0.07269557 0.05581448
0.11718215 0.13905287 0.09321199 0.06555475 0.08897497 0.09176196 0.061166752 0.08567686
0.08749229 0.06943867 0.13229369 0.13885677 0.13100067 0.06259177 0.11967191 0.07289182
00000000: afb2 f83d a819 a53d 61ca 783d edeb af3d
00000010: 4400 d63d 8cb8 df3d 3a57 e83d 9a31 a73d
00000020: ead8 973d c2c3 933d cc68 023e d31f 1e3e
00000030: f7d8 d03d 5a50 dc3d b976 af3d 82fd d33d
00000040: 3848 063e 3864 0580 83f5 073e 4678 da3d
00000050: f8f2 113e 410b b13d 4dc0 963d 0c89 d83d
00000060: c3f1 b13d d892 003e 180e a53d 5abe af3d
00000070: 5560 c43d 3b26 123e 484d b23d 7c75 b23d
00000080: 235a c03d 9d4b 243e 5f4e 4d3d 656f d63d
00000090: 5b06 c93d 6ad3 103e 5357 da3d 75eb e03d
000000a0: dc6c b13d c392 fd3d 43cc f53d 75d8 ad3d
000000b0: 198b 053e 8167 d13d 3f29 bc3d b0cc f93d
000000c0: 0331 d83d 5e89 8f3d ea33 033e fd5c a13d
000000d0: 921c b93d cb8d a13d 5ed5 c53d a9b9 b63d
000000e0: 3bbd dc3d 706b b93d 2808 b93d 4b91 153d
000000f0: cc4d 1c3e 437e 0680 67ee af3d df41 fa3d
00000100: 9868 e33d fb19 f33d 57af c23d 4782 cd3d
00000110: 0978 e93d 8b64 033e 178b b93d 8b29 c53d
00000120: 69b6 90ac ffad 903d 3fee a13d f8be 093e
00000130: e9e0 943d b3bf c33d 2ad1 f53d 914c e93d
00000140: 6030 c83d abc0 fe3d d266 0580 b43e 8d3d
00000150: f8cb 1a3e af87 b83d 9a42 e23d 4ef1 093e
00000160: c6e4 b03d 1e18 003e 262f cb3d 562c e23d
00000170: 11b5 9d3d 9c33 e23d aa03 0e3e f744 dd3d
00000180: dbf6 cf3d 8012 173e ecac 013e 9af9 a33d
00000190: a555 513e 72a0 cf3d 9d31 ef3d 7280 0580
000001a0: 840b cc3d 701e 073e 9348 0e3e f837 b53d
000001b0: 5c87 a03d ecaf ed3d 0c0c c03d c284 083e
000001c0: 4351 c53d 8872 b73d 7b3e 003e 4ebc 013e
000001d0: 7bd8 ed3d f807 da3d 8d42 dc3d adc0 af3d
000001e0: 428b e73d 4cc0 fb3d 148d be3d 03a1 fb3d
000001f0: 5ad3 fc3d 05be 093e 81e7 ad3d 20eb b53d
00000200: a078 b33d d2cd ba3d 7009 bf3d 6a9a e13d
00000210: dc64 e33d e54e 963d aee8 e93d 99a4 b63d
00000220: 92c2 fa3d 0021 f43d 5439 993d ec14 b73d
00000230: 6e5d 003e 538d 023e c097 d83d b72f b03d
00000240: 6ec7 2c3e 9a5a 0580 d7c3 143e 317d df3d
00000250: 4baf a73d f68a 963d a910 b43d e5a3 b23d
00000260: 28c1 c53d 89b6 843d c0de a13d 8d8b b03d
00000270: 595b 8e3d ad4f dd3d b3a8 f53d d632 db3d
00000280: 9ad6 3b3e 88c9 c13d 2811 b83d 6ad1 e63d
00000290: 8f16 1e3e 5484 bb3d 1888 ca3d 7b12 033e
000002a0: cb09 c63d 5523 eb3d 5703 893d 7860 983d
000002b0: 88fd 273e 65db c63d 53d3 0c3e 5730 a33d
000002c0: f9ad f33d 1b62 ae3d 7276 093e a19d cd3d
000002d0: 014e ac3d e56c 913d 7cf0 9b3d 3bf9 0a3e
000002e0: f8d1 783d 250c c23d 203c c33d 9515 043e
000002f0: 1f83 e83d eb86 c03d 2b33 dc3d 7dc7 1e3e
00000300: f3da bf3d 93ad ee3d 0c03 a13d a082 a63d
00000310: d7ec d03d c403 033e 3ba8 483e 9274 a53d
00000320: 67bd fa3d 063a d63d a8e9 c33d b963 a83d
00000330: af13 ce3d 765c 0580 c422 f63d bbd1 093e
00000340: 109a 853d 669d 3e3e 829a 033e d560 e43d
00000350: f309 003e 533a e83d 5b2d c53d 54d3 e03d
00000360: 0c51 c33d 312f dd3d a445 d43d 734b 9b3d
00000370: c7ed df3d 3823 0f3e ab99 103e 6add c73d
00000380: 4c80 bb3d ad6a a13d 9461 093e 9db6 fd3d
00000390: 7ead a63d 6b11 ff3d 7958 c53d e485 f93d
000003a0: af2f c13d 54fc b93d 7366 013e 3713 c53d
000003b0: 8665 e53d a356 e53d 6ae1 943d b99d 643d
000003c0: 32fd ef3d e063 0e3e eee5 be3d 9241 863d
000003d0: 8238 b63d b2ed bb3d fd89 7a3d 5977 af3d
000003e0: 282f b33d dd35 8e3d ff77 073e 7830 0e3e
000003f0: 0a25 063e 1d30 803d 8c16 f53d 4e48 953d

network.1.bias f4 [256]
-0.108640194 -0.0066513005 0.018158099 -0.028016096 -0.10847217 -0.02249878 -0.049828425 -0.014203152
0.0052571376 0.002797515 -0.068938136 -0.06925001 -0.025794221 -0.046734564 0.016777188 -0.058433585
-0.15580535 -4.95437e-40 -0.07629341 -0.03994046 -0.013491465 -0.015159251 -0.009561171 -0.028781265
-0.030696237 -0.047169268 -0.0010668146 -0.04186211 -0.045005396 -0.084714934 -0.035254322 -0.036492273
-0.05236493 -0.074691005 0.014498078 -0.0021371567 -0.03674263 -0.13014014 -0.120371826 -0.022365253
0.0051486474 -0.024917139 -0.03302172 -0.063148685 -0.099130265 -0.07288552 -0.012436262 -0.05820894
-0.09194672 -0.009302576 -0.051092576 0.0018282371 -0.04155316 -0.007400937 -0.014471925 -0.004118386
-0.037896995 -0.026784997 -0.048683073 0.02229539 -0.04135694 -1.237858e-39 -0.036269683 -0.03687147
0.023090824 -0.036969513 -0.03938479 -0.09869668 -0.0603392 -0.06280136 -0.042828057 -0.036481377
-1.187196e-20 0.007417463 -0.008374019 -0.040966917 -0.0031828398 -0.07084417 -0.058559064 -0.061749477
-0.019859115 -0.04497844 -6.714529e-05 0.008630819 -0.19524895 -0.029632818 -0.077531554 -0.052107845
-0.030437723 -0.09417812 -0.03176202 -0.024816476 0.00040231546 -0.047273703 -0.091111496 -0.07573011
-0.017072463 0.0112511655 -0.06132458 -0.027126249 -0.1421643 -0.016567072 -0.065706916 -4.92835e-40
-0.05093633 -0.20562513 -0.07032392 0.01805157 -0.00022027877 -0.06426225 -0.046560284 -0.10046559
-0.041637205 -0.065654136 -0.075177066 -0.016063035 -0.05627713 -0.03737116 -0.027719183 -0.035194147
-0.097780116 -0.03843759 0.016813105 -0.11566324 -0.06380648 -0.0023367496 -0.019884666 0.031563178
0.010548906 -0.05757262 0.02262641 -0.05734431 -0.015465034 -0.006011918 -0.022063175 -0.016056018
-0.057545885 -0.1696021 0.009593106 0.018062592 -0.08991204 -0.046474583 -0.041502427 -0.021913692
-0.06317323 -5.63898e-40 -0.09562466 -0.0399266 0.03451939 0.006880275 -0.016786791 -0.027322598
-0.019399626 0.00815328 -0.04480386 -0.0065604807 0.03336667 -0.05751134 -0.06360688 -0.056974787
-0.28473145 -0.017649675 -0.003052391 -0.041643746 -0.12329999 -0.05615731 -0.04045368 -0.16561604
-0.011081442 -0.07653764 0.018386876 -0.03716324 -0.25075465 0.014987996 -0.057634287 -0.023395047
-0.11010274 -0.018479085 -0.024867345 -0.035193052 0.015007781 -0.006823472 0.017674597 -0.020406568
-0.0021843326 -0.046060737 -0.00422436 -0.06806922 -0.06254593 -0.004380547 -0.011849235 -0.09055506
-0.06453337 -0.055149198 0.0222195 0.007933709 -0.003385096 -0.050127294 -0.13374017 0.03600381
-0.09690561 -0.068847224 0.00023861382 0.019929469 -0.074076846 -3.6757748e-20 -0.12165916 -0.11347863
-0.031932887 -0.11488741 -0.037848104 -0.03891439 -0.1513745 -0.041521907 -0.015049516 -0.04973146
-0.06726902 -0.08838943 -0.041872974 0.0061323186 -0.021464923 -0.09695369 -0.1440396 -0.008936089
-0.0005581867 0.020564936 -0.16757572 -0.057801463 -0.024691889 -0.064306945 0.027358098 -0.08020787
-0.0020450342 0.014661817 -0.05316825 -0.0074464707 -0.036082532 -0.039806582 0.008300899 0.0052578333
-0.038993347 0.014223798 -0.012439301 0.010119649 0.019143626 0.00620944 0.008457322 0.007683159
-0.030746732 0.02348324 -0.0947704 -0.043338887 -0.052022118 -0.0072841044 -0.059920203 -0.04295864
00000000: c07e debd 27f3 d9bb 4bc0 943c 0382 e5bc
00000010: a826 debd 5d4f b8bc e418 4cbd 56b4 68bc
00000020: 1144 ac3b 8356 373b 702f 8dbd f3d2 8dbd
00000030: 674e d3bc be6c 3fbd 5070 893c 0e58 6fbd
00000040: 708b 1fbe 1465 0580 b83f 9cbd 9c98 23bd
00000050: 4e0b 5dbc 825e 78bc 75a6 1cbc b0c6 ebbc
00000060: ad76 fbbc 9034 41bd 5cd4 8bba 9b77 2bbd
00000070: 9457 38bd 067f adbd d666 10bd ec78 15bd
00000080: 9c7c 56bd 99f7 98bd 5989 6d3c 8a0f 0cbb
00000090: 717f 16bd 7543 05be 8185 f6bd 5637 b7bc
000000a0: fcb5 a83b 071f ccbc c841 07bd 1954 81bd
000000b0: cf04 cbbd 0145 95bd 77c1 4bbc 7f6c 6ebd
000000c0: 904e bcbd d569 18bc 7346 51bd 75a1 ef3a
000000d0: a533 2abd 8f83 f2bb a71b 6dbc 87f3 86bb
000000e0: e139 1bbd 366c dbbc e767 47bd d2a4 b63c
000000f0: e565 29bd a57a 0d80 858f 14bd 8a06 17bd
00000100: f828 bd3c 586d 17bd f251 21bd 7c21 cabd
00000110: 3d26 77bd 009e 80bd 796c 2fbd 7f6d 15bd
00000120: 4741 609e 310e f33b 2e33 09bc edcc 27bd
00000130: 3197 50bb c016 91bd a1db 6fbd 05ed 7cbd
00000140: 95af a2bc 503b 38bd 5ad0 8cb8 4768 0d3c
00000150: 57ef 47be 86c0 f2bc ddc8 9ebd 096f 55bd
00000160: 8858 f9bc 75e0 c0bd e418 02bd ec4b cbbc
00000170: deed d239 12a2 41bd aa98 babd 6318 9bbd
00000180: 8ddb 8bbc cf56 383c 7c2f 7bbd de37 debc
00000190: 8593 11be abb7 87bc 5991 86bd d35d 0580
000001a0: 9da2 50bd 658f 52be fd05 90bd e3e0 933c
000001b0: a2fa 66b9 ed9b 83bd ffb5 3ebd e7c0 cdbd
000001c0: c68b 2abd ad75 86bd 6ff6 99bd a096 83bc
000001d0: d982 66bd 8012 19bd 5713 e3bc bd27 10bd
000001e0: f140 c8bd bc70 1dbd a3bb 893c d9e0 ecbd
000001f0: f9ac 82bd 2724 19bb 2be5 a2bc 6448 013d
00000200: 52d5 2c3c 45d1 6bbd 055b b93c dee1 6abd
00000210: 0e61 7dbc a0ff c4bb d5bd b4bc e987 83bc
00000220: 3cb5 6bbd 2cac 2dbe 672c 1d3c 00f8 933c
00000230: ce23 b8bd 225c 3ebd 73fe 29bd 5884 b3bc
00000240: f760 81bd eb23 0680 ddd6 c3bd 138a 23bd
00000250: 3464 0d3d ee73 e13b 7484 89bc a4d3 dfbc
00000260: f7eb 9ebc 5695 053c 4184 37bd 4df9 d6bb
00000270: 7dab 083d 0391 6bbd 5344 82bd 655e 69bd
00000280: 52c8 91be 0d96 90bc a00a 48bb a292 2abd
00000290: b584 fcbd 3505 66bd c2b2 25bd 4097 29be
000002a0: f08e 35bc c4bf 9cbd 13a0 963c 7b38 18bd
000002b0: ea62 80be 3690 753c ee11 6cbd f8a6 bfbc
000002c0: 8c7d e1bd 7361 97bc 9ab6 cbbc 9726 10bd
000002d0: 32e3 753c 6f97 dfbb 51ca 903c ad2b a7bc
000002e0: 0527 0fbb 2faa 3cbd 806c 8abb e067 8bbd
000002f0: 1518 80bd b18a 8fbb 4b23 42bc ee74 b9bd
00000300: 122a 84bd 20e4 61bd ab05 b63c 63fc 013c
00000310: 7dd8 5dbb 4752 4dbd 2ff3 08be bb78 133d
00000320: 7376 c6bd c6ff 8cbd 6934 7a39 2043 a33c
00000330: 9ab5 97bd 6495 2d9f 7028 f9bd 7c67 e8bd
00000340: 0fcc 02bd 174a ebbd 9d06 1bbd b264 1fbd
00000350: eb01 1bbe e012 2abd 3f92 76bc 37b3 4bbd
00000360: 57c4 89bd 8405 b5bd ff82 2bbd 9ef1 c83b
00000370: 35d7 afbc a88f c6bd 1e7f 13be ad68 12bc
00000380: 4653 12ba cc77 a83c f898 2bbe 3ac1 6cbd
00000390: a546 cabc 5cb3 83bd 171e e03c 0644 a4bd
000003a0: fb05 06bb 1e38 703c f3c6 59bd 8601 f4bb
000003b0: 47cb 13bd 3a0c 23bd 7e00 083c e749 ac3b
000003c0: 7db7 1fbd ef0a 693c 36ce 4bbc e2cc 253c
000003d0: 18d3 9c3c 8f78 cb3b 9490 0a3c 02c3 fb3b
000003e0: 92e0 fbbc ec5f c03c fc16 c2bd 1e84 31bd
000003f0: 2515 55bd 7faf eebb e36e 75bd 66f5 2fbd

network.1.running_mean f4 [256]
-0.022402802 0.06761926 0.15960734 -0.016895209 -0.048183784 -0.09940194 0.014108776 -0.12054315
-0.057410035 -0.00163193 0.14031392 -0.015773252 0.01439762 0.062046356 0.115370534 0.056267373
-0.029256538 8.21431e-40 -0.051721703 0.0026144295 -0.043324918 -0.10913898 -0.022774464 0.05973782
-0.064330235 0.11074541 -0.0117674 -0.06804002 -0.018203365 0.14638539 -0.09098606 0.15134336
-0.025478415 0.15101081 -0.13992329 -0.1755809 -0.06804204 0.006747809 0.16029805 -0.05309547
0.0395076 -0.20177037 -0.14724168 -0.066486396 -0.05384566 0.00084254576 -0.014340969 0.08506744
0.12016842 0.037519947 -0.08768739 -0.032883406 -0.004886815 -0.07876315 -0.004049448 0.031706486
0.0263258 0.06692146 0.1827279 0.05036308 0.0066760825 8.43903e-40 -0.0194666 0.009969548
0.15691487 -0.06413759 0.028827997 -0.037153907 0.0059329737 0.1288847 -0.08985881 -0.0031598967
1.8381e-40 0.09708712 -0.123272344 0.0720821 -0.09655635 -0.012611342 -0.12922978 -0.13030447
-0.060179137 -0.088684164 -1.44814e-39 0.017780155 -0.09501983 -0.015348788 -0.09145972 0.05456718
0.12395917 -0.036294457 0.029015068 0.061865248 -0.05292709 -0.04385947 0.1065395 -0.050406262
-0.06367454 -0.009751445 -0.10244333 0.024672143 0.04890754 -0.02763512 0.031073952 -9.31869e-40
-0.042971592 -0.024610205 0.041167952 -0.28292197 -0.21333258 0.060241446 0.12726234 0.06353593
-0.09176805 -0.02083892 0.055161215 0.045657486 0.07694189 0.04928989 -0.21111907 -0.11889537
-0.123594135 -0.10919362 0.096533746 -0.111813776 0.015150483 -0.010228079 -0.06248084 0.12677184
0.025738724 -0.08589688 -0.25722444 0.009812289 -0.06689706 0.12367313 0.030132573 -0.0049803527
-0.04551931 -0.022287602 0.008366505 0.22389129 0.12244676 -0.08185406 -0.027085861 -0.01294451
-0.050353892 -1.073983e-39 -0.077503495 0.0048711207 0.23807639 -0.005805384 -0.022939498 0.0715992
0.037140813 0.04295841 -0.019646317 -0.028117094 -0.22596222 -0.03398266 -0.01504832 -0.14318651
-0.045379613 0.06627208 -0.102478944 0.080043525 -0.059016123 -0.13432437 0.12047142 -0.0098785935
-0.062350158 -0.0041912706 -0.010452991 -0.023954645 -0.017720196 0.022056919 -0.044157784 -0.08984094
-0.024336945 -0.12801737 -0.0003348876 0.018499613 0.13594298 -0.028657766 0.19013216 -0.13782632
0.1335899 0.012553019 0.04044839 0.10780118 -0.15657724 0.007594923 -0.19123782 0.021305218
0.0076303375 0.08793611 0.23655996 -0.049341917 -0.23606376 0.118704565 0.009678349 0.06624267
-0.03769561 -0.05121247 -0.012711144 -0.12044158 -0.07847012 2.390696e-39 -0.034193065 0.044961695
-0.04289961 -0.07125883 -0.12278756 -0.010601973 -0.036972243 0.13965285 -0.0061571277 0.00495787
-0.089851335 0.016688688 -0.0717019 0.22925435 0.16380703 0.106932946 -0.030147465 -0.10031346
0.020486644 -0.21584699 -0.060149025 0.030462818 -0.07395709 0.13986883 0.19608578 -0.044392746
-0.025138639 0.18586007 0.041125298 -0.1616933 0.121092364 -0.0675057 -0.14258869 0.03688905
-0.044479914 -0.067649074 0.0023015027 0.114634745 0.09714954 -0.15192328 -0.00897635 -0.1851847
0.04462081 0.12511073 0.036120705 -0.052758984 -0.042270705 -0.058692683 0.04048982 -0.05155966
00000000: 1586 b7bc f77b 8a3d 1b70 233e d267 8abc
00000010: 5c5c 45bd 3f93 cbbd 7f28 673c 54df f6bd
00000020: c926 6bbd 7ce6 d5ba 74ae 0f3e e836 81bc
00000030: ffe3 6b3c 5224 7e3d 6347 ec3d 9e78 663d
00000040: 68ab efbc d1f1 0800 23da 53bd d956 2b3b
00000050: 7875 31bd 4284 dfbd 8391 babc a5af 743d
00000060: 92bf 83bd 7dce e23d 0ecc 40bc 9158 8bbd
00000070: 391f 95bc 0de6 153e e656 babd c1f9 1a3e
00000080: 1cb8 d0bc 94a2 1a3e 0d48 0fbe 7bcb 33be
00000090: a059 8bbd b91c dd3b 2c25 243e a37a 59bd
000000a0: b9d2 213d e49c 4ebe 86c6 16be 052a 88bd
000000b0: 448d 5cbd 4ade 5c3a 62f6 6abc d737 ae3d
000000c0: dc1a f63d 84ae 193d 7295 b3bd c0b0 06bd
000000d0: 9321 a0bb 934e a1bd 3bb1 84bb a9de 013d
000000e0: 34a9 d73c 1e0e 893d 061d 3b3e 8449 4e3d
000000f0: 0ac3 da3b 7530 0900 6b78 9fbc 5157 233c
00000100: 4bae 203e 925a 83bd b128 ec3c b22e 18bd
00000110: 6469 c23b 5afa 033e e507 b8bd 4516 4fbb
00000120: 6300 0200 9dd5 c63d 3676 fcbd c89f 933d
00000130: 56bf c5bd cd9f 4ebc d054 04be 896e 05be
00000140: 667e 76bd 0ba0 b5bd d3c4 0f80 b0a7 913c
00000150: c299 c2bd 7c79 7bbc 3c4f bbbd d681 5f3d
00000160: 4ede fd3d 7fa9 14bd 02b1 ed3c 6a66 7d3d
00000170: 14ca 58bd fda5 33bd 6231 da3d cc76 4ebd
00000180: cc67 82bd 86c4 1fbc cfcd d1bd 3c1d ca3c
00000190: 4653 483d 0c63 e2bc cd8e fe3c ac25 0a80
000001a0: fb02 30bd 579b c9bc ba9f 283d 26db 90be
000001b0: db73 5abe bcbf 763d 0f51 023e 201f 823d
000001c0: e3f0 bbbd 62b6 aabc baf0 613d 5803 3b3d
000001d0: b693 9d3d 32e4 493d 992f 58be 6a7f f3bd
000001e0: ec1e fdbd e8a0 dfbd 7cb3 c53d 9ffe e4bd
000001f0: bb39 783c ac93 27bc e9eb 7fbd 7ad0 013e
00000200: 04da d23c b4ea afbd ecb2 83be b9c3 203c
00000210: 5301 89bd 5748 fd3d 96d8 f63c 3a32 a3bb
00000220: 7572 3abd 7d94 b6bc aa13 093c c243 653e
00000230: 5ec5 fa3d 1aa3 a7bd 2be3 ddbc 3615 54bc
00000240: e23f 4ebd d4b1 0b80 27ba 9ebd ec9d 9f3b
00000250: 4cca 733e 173b bebb 9deb bbbc 9aa2 923d
00000260: f720 183d 28f5 2f3d 50f1 a0bc d255 e6bc
00000270: a462 67be 6731 0bbd 3b8d 76bc 7c9f 12be
00000280: f9df 39bd a8b9 873d 7be0 d1bd dced a33d
00000290: e4ba 71bd 548c 09be b8b9 f63d d3d9 21bc
000002a0: e162 7fbd ed56 89bb 0643 2bbc 883c c4bc
000002b0: f229 91bc b6b0 b43c cbde 34bd 87fe b7bd
000002c0: 465e c7bc fc16 03be da93 afb9 808c 973c
000002d0: a334 0b3e b1c3 eabc 01b2 423e 5822 0dbe
000002e0: cacb 083e 2eab 4d3c 36ad 253d ddc6 dc3d
000002f0: c955 20be d5de f83b d9d3 43be 4888 ae3c
00000300: e907 fa3b d917 b43d c63c 723e c01a 4abd
00000310: b3ba 71be 611b f33d f091 1e3c 3daa 873d
00000320: b666 1abd 2bc4 51bd 6742 50bc 13aa f6bd
00000330: f1b4 a0bd 4a08 1a00 070e 0cbd c129 383d
00000340: 80b7 2fbd 26f0 91bd 0b78 fbbd e6b3 2dbc
00000350: 3570 17bd 2801 0f3e bbc1 c9bb a175 a23b
00000360: fa03 b8bd b7b6 883c 72d8 92bd a7c1 6a3e
00000370: 08bd 273e a9ff da3d d1f7 f6bc 2571 cdbd
00000380: 9bd3 a73c fe06 5dbe d35e 76bd 298d f93c
00000390: d176 97bd c639 0f3e b6ca 483e 2bd5 35bd
000003a0: 8cef cdbc 1a52 3e3e 0073 283d ee92 25be
000003b0: 46ff f73d 6e40 8abd c502 12be f918 173d
000003c0: 9230 36bd 998b 8abd cfd4 163b 9fc5 ea3d
000003d0: 57f6 c63d c791 1bbe 8a11 13bc 0fa1 3dbe
000003e0: 4fc4 363d 071d 003e 4ef3 133d ce19 58bd
000003f0: 0c24 2dbd bd67 70bd a7d8 253d 3930 53bd

network.1.running_var f4 [256]
0.0011756625 0.0007344932 0.0014547323 0.0003566618 0.00095167436 0.00070238893 0.00061450293 0.00023694868
0.0005144486 0.0004632991 0.00039105158 0.0006047945 0.000517222 0.0011361585 0.00085100014 0.00047103278
0.00087647286 6e-45 0.0008800636 0.00086320966 0.0024675007 0.000373049 0.00065773027 0.00058794237
0.00042271186 0.0006954188 0.0006846644 0.001111595 0.0005070682 0.00044907207 0.0010393814 0.00034384857
0.0006354055 0.002055745 0.00048402266 0.00088274217 0.0003822501 0.00084603095 0.0007290996 0.00067648967
0.00063310674 0.0011497682 0.0009978997 0.0005779684 0.0006821101 0.00074763485 0.0006585755 0.0010995712
0.0005462634 0.00053786073 0.00084062794 0.0009933857 0.00055881764 0.0007231733 0.0009788458 0.0004828558
0.0009312977 0.0002705076 0.00079808634 8.779301e-05 0.0010651463 6e-45 0.00029476295 0.00037484398
0.002483578 0.00044323682 0.00052474195 0.0004696886 0.00092658825 0.00075420644 0.00094907224 0.00035806297
6e-45 0.0006298528 0.00029087288 0.0012019763 0.00021557538 0.0005463443 0.00068449473 0.001261301
0.00063061924 0.00047476107 6e-45 0.0011507992 0.0011474317 0.00063548255 0.0013269731 0.00068047055
0.00031772783 0.0005851044 0.0011469604 0.00063695735 0.00039079564 0.0008841827 0.0008748721 0.0005365711
0.0012898028 0.0021235037 0.0012749857 0.00031320404 0.002391787 0.0007881804 0.000735649 6e-45
0.0005933692 0.0010179173 0.00075444405 0.0014470493 0.0012733365 0.0012805768 0.00045831394 0.0011564086
0.00024516616 0.0006226981 0.00044895266 0.0013393575 0.00093938864 0.0009934824 0.0009987003 0.0010988064
0.0006295464 0.0006451607 0.0011271025 0.0011446625 0.00049159717 0.0021757393 0.00036008807 0.001004138
0.0009686174 0.00036093302 0.0015969814 0.00059217203 0.00076866907 0.00023913084 0.0012008215 0.0006478524
0.001093487 0.00059356535 0.00067039917 0.0018714109 0.0010713128 0.0006885992 0.00033634953 0.00020153772
0.0014319469 6e-45 0.0016237618 0.0008228657 0.001846543 0.00046183367 0.000691407 0.00068095274
0.00047113423 0.0013304792 0.00041042364 0.00045543644 0.0012801272 0.0006514868 0.0007598036 0.0009912081
0.0013030715 0.00052535534 0.0007486324 0.001177246 0.0008168307 0.000358506 0.0002525493 0.0005715505
0.00027481062 0.0008146202 0.00039400853 0.00052056095 0.00089130126 0.00073323544 0.0010673188 0.00045901205
0.0007262621 0.0004113152 0.001390019 0.0006288806 0.00088346115 0.00062725565 0.0017557369 0.0015747015
0.00040044237 0.00055463065 0.0007155488 0.0010895748 0.0007521598 0.00064783904 0.0015119456 0.00061072
0.00056919793 0.0005185714 0.0021150243 0.0014216201 0.0016245377 0.00057225756 0.0016835207 0.0016501357
0.00076824526 0.00034224626 0.0009915701 0.00061409705 0.0010974515 6e-45 0.0010925168 0.0003118068
0.00018031872 0.001485129 0.0015362874 0.0006800077 0.00053651776 0.0006638431 0.0005958901 0.0007332466
0.0004504469 0.00043003107 0.0010107469 0.001603922 0.00082656485 0.00067105266 0.0008399577 0.0005808401
0.0009091757 0.00130918 0.0010703049 0.0005350019 0.00063700695 0.0005738972 0.0022520733 0.00065430603
0.00054965116 0.0018893512 0.00079868187 0.0012319487 0.0005652348 0.0004888487 0.00043002638 0.00022210115
0.00078380894 0.0020959051 0.0004714119 0.0011527536 0.0012279521 0.00087271025 0.00038729366 0.0011283555
0.00030035718 0.0013850606 0.00056625 0.0006637284 0.00048969046 0.00039693253 0.0011132056 0.0008381429
00000000: b018 9a3a 018b 403a b7ac be3a 56fe ba39
00000010: c979 793a 8620 383a 9816 213a 6d75 7839
00000020: 10dc 063a f4e6 f239 0e06 cd39 128b 1e3a
00000030: 2e96 073a 27eb 943a a715 5f3a f3f4 f639
00000040: 19c3 653a 0400 0000 12b4 663a 0549 623a
00000050: cbb5 213b ca95 c339 886b 2c3a 2520 1a3a
00000060: 6d9f dd39 c44c 363a 0d7b 333a f0b2 913a
00000070: c5ec 043a 6f71 eb39 da3b 883a 9346 b439
00000080: 5791 263a aeb9 063b 6cc4 fd39 d367 673a
00000090: bd68 c839 2dc8 5d3a 0c21 3f3a 7456 313a
000000a0: 13f7 253a d2b3 963a f5cb 823a ce82 173a
000000b0: a2cf 323a edfc 433a 41a4 2c3a 7d1f 903a
000000c0: 1e33 0f3a 39ff 0c3a 965d 5c3a 7e34 823a
000000d0: 9e7d 123a 5793 3d3a 9d4c 803a cf27 fd39
000000e0: 5522 743a ead2 8d39 ab36 513a 831d b838
000000f0: 619c 8b3a 0400 0000 6a8a 9a39 b586 c439
00000100: 86c3 223b 3d62 e839 d68e 093a 8940 f639
00000110: 49e6 723a f0b5 453a 29cb 783a 66ba bb39
00000120: 0400 0000 b51c 253a 4c80 9839 a28b 9d3a
00000130: 130c 6239 8c38 0f3a aa6f 333a 3d52 a53a
00000140: 2450 253a 5ae9 f839 0400 0000 6ad6 963a
00000150: 6b65 963a 8396 263a d4ed ad3a 9b61 323a
00000160: b594 a639 b161 193a 9b55 963a 7cf9 263a
00000170: b4e3 cc39 7fc8 673a ac57 653a ada8 0c3a
00000180: 9a0e a93a 7b2a 0b3b 6c1d a73a 8935 a439
00000190: 87bf 1c3b e49d 4e3a 92d8 403a 0400 0000
000001a0: 558c 1b3a a36b 853a e2c5 453a ebaa bd3a
000001b0: 15e6 a63a 07d9 a73a db49 f039 a292 973a
000001c0: a589 8039 903c 233a 6861 eb39 618d af3a
000001d0: 4e41 763a bd37 823a d2e6 823a d305 903a
000001e0: 2508 253a 0020 293a 49bb 933a 8008 963a
000001f0: 87de 003a d996 0e3b 34ca bc39 489d 833a
00000200: d0ea 7d3a 9c3b bd39 ce51 d13a fe3b 1b3a
00000210: 8280 493a 32bf 7a39 e264 9d3a a3d4 293a
00000220: 5653 8f3a 7f99 1b3a babd 2f3a 214a f53a
00000230: 4b6b 8c3a 1c83 343a 1258 b039 df53 5339
00000240: 2ab0 bb3a 0400 0000 68d4 d43a 95b5 573a
00000250: b407 f23a 4422 f239 8a3f 353a f781 323a
00000260: 9102 f739 7963 ae3a 212e d739 a5c7 ee39
00000270: f1c9 a73a 8ac8 2a3a 8e2d 473a 6deb 813a
00000280: d3cb aa3a 00b8 093a df3f 443a d24d 9a3a
00000290: 9520 563a dcf5 bb39 9868 8439 1bd4 153a
000002a0: 7514 9039 3c8c 553a ee92 ce39 4176 083a
000002b0: 37a6 693a 9936 403a 47e5 8b3a 8ea7 f039
000002c0: a062 3e3a cba5 d739 4c31 b63a 76db 243a
000002d0: 1398 673a 6a6e 243a c120 e63a 3766 ce3a
000002e0: 77f2 d139 a264 113a ab93 3b3a 10d0 8e3a
000002f0: 972c 453a bed3 293a 7a2c c63a ba18 203a
00000300: 3a36 153a bdf0 073a 389c 0a3b a855 ba3a
00000310: 71ee d43a 8e03 163a 95a9 dc3a 5e49 d83a
00000320: 1164 493a 846f b339 92f7 813a 5bfb 203a
00000330: 5dd8 8f3a 0400 0000 c832 8f3a 007a a339
00000340: f013 3d39 a9a8 c23a 405d c93a 8b42 323a
00000350: 19a5 0c3a c205 2e3a 8235 1c3a 5937 403a
00000360: f629 ec39 cb75 e139 0a7b 843a b13a d23a
00000370: d4ad 583a 95e9 2f3a 9b30 5c3a 8543 183a
00000380: c055 6e3a cb98 ab3a 7949 8c3a 5f3f 0c3a
00000390: d0fc 263a 9771 163a 8597 133b bc85 2b3a
000003a0: 7716 103a 1ba4 f73a a25e 513a 5779 a13a
000003b0: 442c 143a 1526 003a 2a75 e139 d3e3 6839
000003c0: 8778 4d3a 745b 093b d627 f739 fe17 973a
000003d0: 3cf3 a03a 98c6 643a ad0d cb39 54e5 933a
000003e0: 4279 9d39 ec8a b53a 6570 143a 0ffe 2d3a
000003f0: 925e 003a 621b d039 fbe8 913a d1b6 5b3a

network.4.weight f4 [128, 256]
-0.00021167565 0.027454397 -0.0012190035 -0.005582404 -0.035812803 -0.001871971 0.0025991981 0.035647906
0.018872414 -0.020395325 -0.038804922 0.018784028 -0.005426075 0.016394656 0.0018696534 0.005045763
-0.031756967 5.20916e-40 -0.0028365196 -0.07236275 -0.014761403 0.0055592055 -0.03078675 0.019059097
-0.029307725 -0.031527378 0.013688359 -0.0050102677 -0.013392235 0.02722789 -0.014987878 -0.067576475
-0.0052309134 0.010396334 0.00027360208 0.009442969 0.020512395 0.09999192 0.013110121 -0.036008578
0.010965023 -0.0186559 -0.015403726 -0.008124384 0.002960563 -0.04882802 -0.040701415 -0.0071317055
-0.0045507485 -0.0041187457 -0.0033112252 0.015042962 0.0007356686 -0.008123482 0.008263417 -0.04605856
0.005855723 0.025869265 0.004080409 0.013106015 -0.0013126702 -2.22727e-40 -0.03880762 -0.025364013
-0.014902555 0.007755428 0.0006799587 0.015284086 0.04129149 -0.018419174 -0.009224209 -0.030961022
4.93743e-40 -0.002852499 0.001596263 -0.057639696 -0.008155741 0.01546199 0.013783151 0.0029670058
0.047003515 -0.012492728 -5.00538e-40 -0.025355943 0.007390105 0.018798338 0.0032283806 0.00057699205
-0.046481438 -0.0075959624 -0.031645093 -0.009744495 -0.035044763 -0.04037859 0.023692245 0.016879257
-0.020462504 -0.021039525 -0.012162426 0.010601301 0.016023323 0.013809641 -0.012120745 -6.06311e-40
-0.006951452 -0.03162135 -0.041548636 -0.01792803 -0.028383832 0.0016476444 0.013013061 0.051478468
-0.0038489127 -0.04775973 0.008227372 -0.05541339 -0.0015279859 0.024548352 0.03520299 -0.018715663
0.012377315 0.010487355 -0.009111377 -0.022124121 -0.059967842 0.0035900134 -0.0033165384 0.00029377048
-0.004046062 0.031127341 -0.011357159 0.00084358786 -0.031236546 -0.024020731 -0.058311973 0.004593625
0.029359182 0.022917924 0.018809263 -0.012299585 0.002495326 -0.009167361 -0.011799698 -0.012610968
0.0097679505 -5.01802e-40 -0.032940008 0.006752881 -0.0012363401 -0.02559658 -0.022729183 0.011410844
0.008807546 -0.02908468 0.027430097 -0.0033473233 -0.02289326 -0.05270872 0.01230143 -0.012040187
-0.04983068 -0.037727896 0.0037671947 -0.0047918265 0.0895657 0.020037012 -0.013544403 0.01114742
-0.005082597 0.005031043 -0.0010662643 -0.015085608 0.03017721 -0.029660702 -0.040657476 0.0051182886
0.091073446 0.011812567 -0.06144084 0.024275105 -0.009513784 0.023397233 -0.02086312 -0.0027700793
0.00028717337 -0.029640075 0.00028586018 -0.042893395 0.0012524474 -0.023520643 -0.014599492 0.024694901
0.018122248 -0.0131519465 -0.0073027327 -0.031398565 -0.034503326 0.0021935091 0.0057878504 -0.04796174
0.009585686 -0.033507742 0.015389327 -0.004718516 -0.0017893658 5.9391447e-22 -0.018423006 -0.013905576
-0.0044423956 0.03954318 -0.017355088 -0.020283362 -0.0016665987 -0.05631672 0.0031430316 -0.0019294255
0.02013807 0.020881526 0.006619186 0.021089617 -0.005180726 -0.042140238 0.009392948 0.0037243385
0.0022696226 0.004050581 -0.0022579737 0.0012147826 -0.032465935 -0.074514754 0.00910696 -0.0064473106
0.026448635 0.017216876 -0.009937301 -0.008646406 -0.06193225 0.058049873 -0.008129741 0.0065266383
-0.06466667 -0.017559404 -0.03430241 -0.0155871045 -0.011722524 -0.021649413 0.0026006363 -0.028480878
0.0054782466 0.00299463 -0.019327147 0.017602315 0.040777843 0.022901889 0.0059507014 -0.018170197
00000000: 40f5 5db9 0be8 e03c f8c6 9fba 99ec b6bb
00000010: 72b0 12bd ec5c f5ba 4f57 2a3b 8a03 123d
00000020: 529a 9a3c 1914 a7bc e9f1 1ebd f6e0 993c
00000030: 37cd b1bb 164e 863c 280f f53a ee56 a53b
00000040: 9813 02bd 1aac 0500 e7e4 39bb ec32 94bd
00000050: d0d9 71bc ff29 b63b 7f34 fcbc d321 9c3c
00000060: c116 f0bc da22 01bd 2445 603c 2c2d a4bb
00000070: 1b6b 5bbc 060d df3c b78f 75bc 8965 8abd
00000080: 1568 abbb 6355 2a3c 4072 8f39 afb6 1a3c
00000090: 9c09 a83c 90c8 cc3d d5cb 563c bb7d 13bd
000000a0: a4a6 333c 42d4 98bc e95f 7cbc 231c 05bc
000000b0: 0106 423b e4ff 47bd 87b6 26bd 15b1 e9bb
000000c0: 721e 95bb 8bf6 86bb 2401 59bb c176 763c
000000d0: e2d9 403a 5a18 05bc 4863 073c e7a7 3cbd
000000e0: 5de1 bf3b c8eb d33c f4b4 853b 9cba 563c
000000f0: e70d acba df6c 0280 bdf4 1ebd 31c8 cfbc
00000100: d929 74bc 3f21 fe3b 423f 323a 1a6a 7a3c
00000110: 4421 293d cfe3 96bc 2321 17bc f8a1 fdbc
00000120: 5b60 0500 fef0 3abb b339 d13a 9a17 6cbd
00000130: a89f 05bc 4954 7d3c bad2 613c 1972 423b
00000140: c286 403d 4dae 4cbc 4c73 0580 44b7 cfbc
00000150: b228 f23b f9fe 993c 3d93 533b 4841 173a
00000160: 5263 3ebd 8de7 f8bb 499e 01bd 60a7 1fbc
00000170: 198b 0fbd 0564 25bd 3d16 c23c 5e46 8a3c
00000180: fba0 a7bc 155b acbc e944 47bc 14b1 2d3c
00000190: 5843 833c d541 623c 1796 46bc 269a 0680
000001a0: 01c9 e3bb 6485 01bd e72e 2abd cedd 92bc
000001b0: 3685 e8bc c6f5 d73a bc34 553c 16db 523d
000001c0: 0a3e 7cbb b59f 43bd 19cc 063c 27f9 62bd
000001d0: b346 c8ba a019 c93c 0331 103d 9751 99bc
000001e0: 39ca 4a3c 28d3 2b3c e347 15bc a53d b5bc
000001f0: d7a0 75bd 6e46 6b3b 485a 59bb 3505 9a39
00000200: d494 84bb c4fe fe3c 6113 3abc 3924 5d3a
00000210: c9e3 ffbc 20c7 c4bc 89d8 6ebd 1f86 963b
00000220: ab82 f03c 5fbe bb3c e215 9a3c 3384 49bc
00000230: a088 233b b332 16bc 8553 41bc 3c9e 4ebc
00000240: c109 203c d276 0580 1aec 06bd 4647 dd3b
00000250: b10c a2ba ebaf d1bc 8d32 babc 8cf4 3a3c
00000260: 874d 103c ff42 eebc 15b5 e03c c45e 5bbb
00000270: a58a bbbc 19e5 57bd f08b 493c 3444 45bc
00000280: 411b 4cbd 9188 1abd 0ae3 763b c104 9dbb
00000290: 396e b73d a924 a43c 58e9 5dbc aba3 363c
000002a0: ea8b a6bb 73db a43b e5c1 8bba a029 77bc
000002b0: 3236 f73c 00fb f2bc 7488 26bd 51b7 a73b
000002c0: b784 ba3d 7f89 413c 64a9 7bbd 96dc c63c
000002d0: b4df 1bbc 8eab bf3c 22e9 aabc 388a 35bb
000002e0: c28f 9639 becf f2bc 81df 9539 fcb0 2fbd
000002f0: 2929 a43a 5dae c0bc b532 6fbc f64c ca3c
00000300: 1c75 943c 437b 57bc c34b efbb c89b 00bd
00000310: 5c53 0dbd fac0 0f3b 02a8 bd3b 8873 44bd
00000320: 480d 1d3c 6a3f 09bd 8423 7c3c c89d 9abb
00000330: 2789 eaba e87f 331c d8eb 96bc 37d4 63bc
00000340: 8491 91bb 08f8 213d 422c 8ebc 4b29 a6bc
00000350: c671 daba 5cac 66bd 52fb 4d3b c7e4 fcba
00000360: 98f8 a43c bc0f ab3c c2e5 d83b 22c4 ac3c
00000370: 14c3 a9bb 3e9b 2cbd e1e4 193c 0814 743b
00000380: f3bd 143b bcba 843b 83fa 13bb 5739 9f3a
00000390: 00fb 04bd 319b 98bd 5c35 153c f643 d3bb
000003a0: cfaa d83c 680a 8d3c 10d0 22bc a8a9 0dbc
000003b0: acac 7dbd b4c5 6d3d 9b32 05bc 69dd d53b
000003c0: f66f 84bd bdd8 8fbc af80 0cbd 0e61 7fbc
000003d0: d40f 40bc 1c5a b1bc 706f 2a3b bb50 e9bc
000003e0: dd82 b33b 8e41 443b f753 9ebc bb32 903c
000003f0: ab06 273d be9c bb3c 1afe c23b aad9 94bc

network.4.bias f4 [128]
2.2128063e-06 2.2070376e-06 -7.300404e-06 5.668173e-06 -2.814972e-06 5.997404e-06 -1.170127e-06 -1.9113612e-07
1.2428975e-06 5.2363016e-06 -7.98267e-07 1.7911127e-06 2.7530612e-06 1.8268602e-07 2.5311786e-07 3.0723956e-07
4.3820696e-06 -5.3777944e-06 -1.1690522e-06 -5.885319e-07 -3.752544e-07 2.2113008e-07 -9.261672e-06 1.5832197e-07
-4.371958e-06 7.5538713e-07 2.7763954e-07 -9.582959e-07 -1.0532397e-06 4.668932e-06 -2.3037136e-07 4.440248e-06
-5.339243e-06 -3.7634973e-06 9.88474e-07 9.92532e-07 -1.8077462e-06 5.125481e-06 1.4288593e-06 -2.5590696e-06
-3.0010926e-07 -1.0027571e-06 -2.8315364e-07 -1.7665144e-07 -4.897141e-06 -2.211015e-06 -1.3978706e-06 9.4338034e-08
5.3864833e-06 -4.9302053e-06 2.594004e-07 2.280477e-06 5.6462604e-06 3.5620776e-06 -4.886954e-06 -1.516783e-06
8.9135504e-08 1.4381494e-06 7.1499358e-06 -1.4183845e-06 -3.0407525e-06 8.2320304e-07 -1.1618457e-06 6.561459e-06
-4.8366187e-06 4.8555705e-07 4.2404286e-06 -3.5200503e-06 -6.8514424e-07 -1.982765e-06 -6.8833806e-08 1.7410142e-06
-2.2950299e-07 -6.825622e-07 -2.7408538e-07 1.7252332e-06 -4.1136627e-06 -2.0064812e-07 -5.299934e-07 4.7293622e-07
1.2481332e-06 -4.3527305e-07 -1.2122628e-06 -2.1513633e-06 -1.2037765e-06 4.42958e-06 -1.1866425e-06 1.5295951e-06
-2.6456964e-06 -3.8110934e-06 -3.524836e-07 1.898942e-07 2.884057e-06 7.329505e-06 -3.4905459e-06 -4.3059046e-07
-1.7293363e-06 4.0584305e-06 -1.7109671e-06 -2.9778005e-06 1.8775274e-06 -2.7604835e-06 2.613417e-06 -3.6970569e-06
-1.536956e-06 -3.2268042e-06 -4.4837857e-06 4.8006555e-06 7.3354486e-06 -3.3552743e-07 -1.4129515e-06 7.120068e-06
1.7513208e-06 -2.1802746e-06 -6.572166e-07 -3.9827637e-06 -8.458112e-07 -2.3759884e-07 2.6706955e-06 -1.7753027e-06
-8.7488985e-07 -2.6357984e-06 -3.954951e-06 1.2203599e-06 -5.039936e-06 1.8886714e-06 6.286126e-07 -6.8804724e-07
00000000: b97f 1436 9e1c 1436 fef5 f4b6 3c31 be36
00000010: dae8 3cb6 4f3d c936 420d 9db5 193b 4db4
00000020: a2d1 a635 7db3 af36 7e48 56b5 2a66 f035
00000030: 3bc1 3836 5a28 4434 41e4 8734 aff2 a434
00000040: b109 9336 e772 b4b6 54e8 9cb5 9bfb 1db5
00000050: 9276 c9b4 c66f 6d34 9462 1bb7 36ff 2934
00000060: d5b2 92b6 cfc5 4a35 7d0e 9534 cc9e 80b5
00000070: 0a5d 8db5 d2a9 9c36 ff5b 77b4 71fd 9436
00000080: c027 b3b6 6490 7cb6 b5ab 8435 2437 8535
00000090: b0a1 f2b5 8cfb ab36 3bc7 bf35 7bbc 2bb6
000000a0: b41e a1b4 7996 86b5 5704 98b4 94ad 3db4
000000b0: 1f52 a4b6 f360 14b6 789e bbb5 e296 ca33
000000c0: 8abd b436 246e a5b6 b843 8b34 4c0a 1936
000000d0: 0275 bd36 070c 6f36 9dfa a3b6 4494 cbb5
000000e0: c36a bf33 7006 c135 7be9 ef36 525f beb5
000000f0: bb0f 4cb6 15fa 5c35 b7f0 9bb5 812a dc36
00000100: 3d4a a2b6 3a57 0235 0149 8e36 013a 6cb6
00000110: c1ea 37b5 a50f 05b6 c9d1 93b3 cbac e935
00000120: 4d6d 76b4 5139 37b5 0226 93b4 908e e735
00000130: 1808 8ab6 bc71 57b4 de44 0eb5 dce7 fd34
00000140: 8885 a735 79af e9b4 08b5 a2b5 2460 10b6
00000150: 7291 a1b5 cda1 9436 ba44 9fb5 7d4c cd35
00000160: b88c 31b6 16c2 7fb6 fa3c bdb4 b8e5 4b34
00000170: b98b 4136 f8ef f536 1f3f 6ab6 e72b e7b4
00000180: 8b1b e8b5 a72d 8836 62a4 e5b5 39d6 47b6
00000190: 5aff fb35 bf40 39b6 2a62 2f36 f41a 78b6
000001a0: 6849 ceb5 138c 58b6 6d73 96b6 5115 a136
000001b0: 0623 f636 8a22 b4b4 a5a4 bdb5 ebe8 ee36
000001c0: ed0e eb35 d550 12b6 956b 30b5 aea3 85b6
000001d0: b40b 63b5 ac1e 7fb4 333a 3336 f046 eeb5
000001e0: f9d9 6ab5 ace2 30b6 c5b4 84b6 3fcb a335
000001f0: b81c a9b6 417e fd35 eebd 2835 3fb2 38b5
