guitar_audio/models/tone_classifier_nn.pth (torch, 269963 bytes, 4 tensors)

net.0.weight f4 [256, 256]
00000000: 7fb2 cb3d 1295 283e a926 7d3d e5c0 d2bd
00000010: fe7a 3fbe 0a29 1dbe 6569 b03d 066b b4bd
00000020: a29f 5dbe a091 18be 1f3e 6b3e 1fc0 da3d
00000030: ff5d 523d a8a4 6abe fb97 49bd 7652 36be
00000040: 8571 2a3e 4fa7 c1bd 384f 0d3d 3662 21be
00000050: 3be5 10be 7d26 4bbe 2fbb c33d a08d 613e
00000060: 78c3 273e e2ea d9bd c609 d03d 9e28 213e
00000070: 3d95 393d 5830 233d 6aea 893e 388c 923e
00000080: aced e23d 02a3 3e3e 5f13 253e e985 6ebe
00000090: 7b27 393e 3d1d 783e 2646 c7bd daf0 b8bd
000000a0: 5d95 2ebe 975a f9bd 4050 103e 6e7d 1abe
000000b0: 53c2 62be 5152 a83d 41b9 723e 4951 32be
000000c0: aa7d 0c3e 1191 203d 5bf0 3e3d 033e 96bd
000000d0: 09a2 063d ce15 1bbd 4153 1bbe 2ca9 c23d
000000e0: 4ac1 5b3e 84a3 3abe 25eb 74be c42a 3a3e
000000f0: eab2 353e ded9 3bbe 0176 0fbe 57f7 44be
00000100: d857 523e baeb 9bbd 0d9a 673d 4600 0c3e
00000110: 5efe 9fbd 7508 f4bc dcf2 38be 7b6f 73be
00000120: 82db 48be b331 3fbe f3e4 503e c889 d93d
00000130: 2a9c b9bd 04fa 5fbd 3578 c6bd 0860 b3bd
00000140: 8e60 5f3d a339 37be eb8f adba c9af 19be
00000150: 4729 8fbd a373 96bd 02c0 493d f8c5 573e
00000160: 663f 4c3e 1ede 333e 337f 373e 586b 80be
00000170: 25d8 5a3e 8387 4dbe 6279 12bd 5542 af3d
00000180: 4273 233e 8265 2f3e aead ae3d e49c 633e
00000190: a4dd 803d 55b1 0f3e aee1 8a3e 01a6 1a3e
000001a0: 4cd6 4f3e 8d7b d73d c06f dabd e99c 41bd
000001b0: c524 14be 00f6 263e db11 6cbe fb7a 033e
000001c0: 1ba2 1cbd 4e7a ef3d bdaa 0abe 6949 413e
000001d0: ba75 913e 0a2a 503e 7d52 4a3c 5ade 1ebe
000001e0: ee37 a73d 393c 9abd dd40 ae3d 16c8 49be
000001f0: ac4f 9dbd cde3 0a3e d3fa 203e cb69 9e3d
00000200: ed5b dbbc 79b4 84bd a4e4 c63d fe0a 113e
00000210: b7ca afbd b4bc ce3c 7fc5 37be 468f 77bd
00000220: dda9 6e3d 036d 99bd 9e0f f3bd 9e61 afbd
00000230: 97a0 47be 5a55 1e3e ed5a 023e dd99 0f3e
00000240: 9f42 613e c498 0f3c 0215 d5bc de43 e53d
00000250: b494 0a3e c725 2b3e 8c5e 053e e541 863c
00000260: 8245 9f3d 15e5 8d3e 5eff 28be 5c90 383e
00000270: ef5a 5ebe 1aaf 57bc c0c3 e23d 9ae7 10be
00000280: f687 39be c99f 02be 34ea d03c dab3 883d
00000290: f6a0 48be 4c7f 3abe 5c13 46be 9587 a1bc
000002a0: 61be 87bd 8e27 923d bcd9 a63c 7bb2 82bd
000002b0: 4ffd d33d c814 113e acc2 60bd 9225 11be
000002c0: 47c5 3ebe d070 2bbd e13b e63d 9576 13be
000002d0: 5e75 d13d 26f2 3d3c 8682 04be 806e 75be
000002e0: c6eb 103e 40b4 663e 1da8 14be 1aea 0bbe
000002f0: 14eb a93d 571f 733d a9ca 2fbe 6b85 1a3e
00000300: d4dc 02be e24e 06be 4c63 cdbd ab91 11be
00000310: 2c06 3c3e dc25 6a3d 2343 35bd 5a9b 1c3e
00000320: 16ab 013e 4738 e53c f9c0 333e eb99 0f3e
00000330: 06c7 f43d 4aa4 81be 679e 76bd f40a c1bd
00000340: 37ae 74be 57c1 f9bd 432d 9cbd 1781 53be
00000350: f146 f9bd 4ae2 21be 47c3 16be a03b ca3d
00000360: 0f8e 023e de32 57be 5f53 d83c c69b 1fbe
00000370: f775 02bc 8bfd 64be 66a3 29be 1c7c 483e
00000380: ada0 76be 9c17 c0bd 58f8 69bd 008e e03d
00000390: ce8c 72bd 9dec 20bd 64bf c3bc 4105 09be
000003a0: 79bc d2bd 5dfc 2abe d7cc 8a3a db68 0bbe
000003b0: fdc8 193e b4ab ae3d 3fcd 473d e729 3e3e
000003c0: 7c04 0b3e 98c8 0ebe e211 17be 9f61 09be
000003d0: 7c63 e53b 9396 6d3e 823f be3d 9582 15be
000003e0: af9f 2abe dfbb 403e 5a8b e8bd 956c 113e
000003f0: cc3c 343d 45e4 713d 92cd 2b3e 1304 00be
0.09946155 0.16463116 0.061804447 -0.10290698 -0.18699262 -0.15347686 0.086138524 -0.088094756
-0.21642926 -0.14899302 0.22972916 0.106811754 0.051359173 -0.22914374 -0.049217205 -0.17804894
0.16644867 -0.0945574 0.034499377 -0.15760121 -0.14149944 -0.19838901 0.09557187 0.22026682
0.16383159 -0.106405035 0.10158114 0.1573815 0.04530834 0.039841026 0.26936656 0.28622603
0.110804886 0.1861687 0.1612067 -0.2329327 0.18081467 0.24229904 -0.09730177 -0.09030314
-0.17049165 -0.12175482 0.14093113 -0.1508691 -0.22144441 0.082188256 0.23703481 -0.1741382
0.13719812 0.039200846 0.04661594 -0.073360465 0.032869373 -0.03786259 -0.15168478 0.09504923
0.21460453 -0.18226439 -0.23917826 0.18180376 0.17744032 -0.18344828 -0.14009859 -0.19234978
0.20541322 -0.07613321 0.0565434 0.1367198 -0.078121886 -0.029789189 -0.18061393 -0.23772995
-0.19614986 -0.18671302 0.20399837 0.10621983 -0.09062989 -0.054681793 -0.096908964 -0.08758551
0.05453544 -0.1789308 -0.0013241743 -0.15008463 -0.06990295 -0.07346275 0.04925538 0.21071613
0.1994606 0.175652 0.17919616 -0.25081897 0.21371515 -0.20071225 -0.03576029 0.08557574
0.15961936 0.17128566 0.085292205 0.22227818 0.062922746 0.1403249 0.27125305 0.15102388
0.20296592 0.10521612 -0.10665846 -0.04726878 -0.14467151 0.16304779 -0.23053686 0.12839882
-0.038240533 0.1169325 -0.13541694 0.1887566 0.2841013 0.20328537 0.012348768 -0.15514508
0.081649646 -0.07531018 0.085084654 -0.19705233 -0.07681212 0.13563462 0.15720682 0.07735022
-0.026777232 -0.06479735 0.097115785 0.1416435 -0.08583587 0.025236465 -0.17946433 -0.06043937
0.058267463 -0.074914955 -0.11868213 -0.08563541 -0.19494854 0.15462247 0.12729998 0.14023538
0.2199807 0.0087644495 -0.026010994 0.11194585 0.13533288 0.1671363 0.13024348 0.016388843
0.077769294 0.27713838 -0.16503665 0.18023819 -0.21714376 -0.013164306 0.110724926 -0.14150849
-0.18118271 -0.12756266 0.025502302 0.06674929 -0.19592652 -0.18212622 -0.19343323 -0.01971797
-0.06628109 0.07136451 0.020367496 -0.06381699 0.10351049 0.14168084 -0.054873154 -0.14174488
-0.18629943 -0.041855633 0.1124189 -0.14400704 0.10227464 0.011593377 -0.12940416 -0.23967934
0.1415244 0.22529697 -0.14517255 -0.13663521 0.08296791 0.05935606 -0.17167152 0.15089957
-0.12779552 -0.13116029 -0.10028705 -0.14215724 0.1836173 0.05716501 -0.04425348 0.15293637
0.1266292 0.027980937 0.17554082 0.14023559 0.11952023 -0.25320655 -0.060209658 -0.09425917
-0.23894583 -0.1219508 -0.076258205 -0.20654713 -0.12171734 -0.15808979 -0.1472293 0.09874654
0.12749504 -0.21015498 0.026406942 -0.15586767 -0.007962695 -0.22362344 -0.16566238 0.19578594
-0.2408473 -0.09379503 -0.057121605 0.10964584 -0.059216313 -0.039288152 -0.023894973 -0.1338091
-0.102898546 -0.16697831 0.0010589611 -0.13614218 0.15018077 0.085288435 0.048779722 0.18570672
0.1357593 -0.13943708 -0.14752916 -0.13416146 0.007000385 0.23201971 0.09289457 -0.14600594
-0.16662477 0.18821667 -0.11354704 0.14201577 0.044003293 0.059055585 0.16777638 -0.12501554

net.0.bias f4 [256]
00000000: 0014 f83c 6ac1 763c 4e11 fb3d b752 4fbc
00000010: 9fed e8bb 2981 93bd 62a7 703c 50e7 0cbd
00000020: 27a0 063e 7483 b33d 1ab0 f3bc 4a1b 24bd
00000030: 07e0 7cbd 09d9 4cbd ed6e d0bc c215 19bd
00000040: 39da b53c e08e 693b 85a0 1e3d 28dd a9bd
00000050: 0adf 613d aca9 62bd a8e5 103d b5f7 d73d
00000060: cfb7 bb3d c0fe 833d ee55 c53d 7e8a dc3c
00000070: 00b0 e6ba fe1b 3f3d 1ac2 8c3d 18ba 003c
00000080: 4160 1dbd 4166 febc acd0 bd3b 0bac f63d
00000090: e129 00bc e097 e3bb feed 1bbc ba7e 7b3d
000000a0: 0e72 d63d 35a9 3bbc 1d1b 1b3d 1489 a73d
000000b0: ba76 293d 0479 0fbd 36b4 32bd 890c d4bc
000000c0: f698 223e 04da 46bc 73ef 4dbd 6e65 0bbd
000000d0: ccf6 76bd 3c8d 65bd 108a 71bc 30d7 553c
000000e0: 53df 233d 8ae6 6fbd d760 a93d ce94 cc3d
000000f0: 5968 293d 0591 9cba c896 0c3e 5c38 73bd
00000100: 50f8 173d 68dc 143c 1288 103e cc00 90bc
00000110: 1866 6fbd b5da fe3d dc06 47bd e51d 1f3d
00000120: 805d f23b b7fc 723d 42b5 933a f9fa 383b
00000130: b0df 16bd 4429 233e b18a 393d 8a1d 043e
00000140: ec51 d7bc c21d 6bbd 24d9 6abd 6303 353d
00000150: 60e0 6a3c 0c6c 74bd aac5 8b3b 2ee1 a23d
00000160: 86fa 07bd 703d f53b e284 f73c e28a 4c3d
00000170: e693 8a3d e41f 123c 6312 ac3c b621 f33d
00000180: e0fd 6d3d b1db 3c3d 0a31 29bd 06d7 e7bc
00000190: 90af 00bd 5e25 8cbd 9bc6 a03d 1be4 6f3d
000001a0: d036 e9bb a4e3 9d3c 25fe 45bd b659 b5bd
000001b0: c94a 18bd 2c73 e13d 84e6 15bd 65ad 9d3d
000001c0: a07a 273d 1cd1 003d 0e28 34bd 4009 34bd
000001d0: 0e01 f73d 0602 0ebd 4dc2 503c b183 983d
000001e0: e358 8f3b 5514 233d d073 35bd 8646 78bd
000001f0: d1e8 a03d 85c4 f0bd f9b1 adbc 3968 08be
00000200: adff d9bc fe1c 13bd 886d 90bd 32f7 babb
00000210: 671f 14bd bbc3 2bbc ea21 87bd d03b 9ebc
00000220: 1055 f8bb 092f b93d c7a6 8fbc 472e 4c3d
00000230: f899 79bd 4096 fabb fa5f f9bc c00c db3b
00000240: 352a aa3c bcb5 5cbd 83a7 3d3c d11a 83bd
00000250: 99ee 1fbc f433 d13d 6869 28bd ea2c c53d
00000260: ce55 39bd 8be0 e73d 217e c53c 72be 23bd
00000270: 2a22 88b9 6891 89bc 3e28 8a3d 816a 193d
00000280: 69af b9bc 1c60 afbc d456 70bd d8ec 10bd
00000290: 5814 62bc 2e60 993d b999 a83c 1d60 e7bb
000002a0: fa9c 183e dd24 bd3d d862 ce3c f48d 7fbd
000002b0: f03b 083e 000a 18ba 0200 5bbc 848b 3abc
000002c0: d606 30bc e713 583d 9b67 f03d 7cbe 8ebc
000002d0: fe5b b43d 1598 013e 94c5 5dbd eee9 07bd
000002e0: 98de 913d 6244 79bd 402e 993d 4dc3 c0bc
000002f0: 9d34 083d 8d6f c33d 67a9 213e e148 1c3d
00000300: adae 14bd 61be 013d 636a 233d a8db 033e
00000310: c012 a53d 6899 8c3c c067 bc3a 9022 e23b
00000320: 4e01 2dbd 59de 2a3c 955a 583a cce9 61bd
00000330: 1912 893c d72c ab3d 1df1 603c 2104 78bc
00000340: 28d9 8abd 124a c83c 52ac 6b3d fa1a 3abd
00000350: 5a46 01bd 2fd1 9c3a 625e 0fbd 0a12 963d
00000360: 52de ca3d 564b 9a3c e920 1f3e 32b3 62bd
00000370: b026 913b d24d 63bd 62bb 0cbd f079 313c
00000380: 2459 243d 377e ecbc 5b79 8dbd 031d 793d
00000390: 6c95 273e 3887 85bc 9a7d 2bbd 3d4f 8b3c
000003a0: 807f 843a 76ed 8a3c 18e7 773d 8037 323b
000003b0: 0038 55bd 6c4f 0c3d 03de bb3c 74b8 3cbd
000003c0: 01a0 c93d 185a 89bc bffa 943d 9788 793d
000003d0: 3c67 123e 4c8e 27bc bd1f 323e 1d80 c239
000003e0: 742c 8d3b 2d0d a1bc 05c2 9b3d 5cc7 3dbc
000003f0: 3f3c 71bd bf0d 8b3c 3b8a a1bc f02b b9bc
0.030282974 0.015060762 0.1225916 -0.012653998 -0.0071084048 -0.0720237 0.014688345 -0.034400284
0.13147031 0.08765307 -0.029747058 -0.040065087 -0.061737087 -0.05001167 -0.025443519 -0.037374265
0.022198783 0.0035638139 0.038727302 -0.08294135 0.055144347 -0.055337593 0.035375267 0.10545293
0.09165918 0.06445074 0.096355304 0.026921507 -0.001760006 0.046657555 0.068729594 0.007856868
-0.038421873 -0.031054618 0.005792698 0.12044533 -0.007822485 -0.006945595 -0.009517191 0.061400153
0.10470973 -0.011453916 0.037867654 0.081804425 0.041372992 -0.03502752 -0.043628894 -0.025884883
0.15878662 -0.01213694 -0.050277185 -0.034032278 -0.060293958 -0.056042895 -0.014742389 0.013051793
0.0400079 -0.05856947 0.08270424 0.0998932 0.04135928 -0.0011945075 0.13729393 -0.05937992
0.037102044 0.009085752 0.14114407 -0.017578505 -0.058446974 0.12444059 -0.048590526 0.03884687
0.0073964 0.05932304 0.0011269229 0.0028225763 -0.03683442 0.1593371 0.045298282 0.12901893
-0.02628418 -0.057401426 -0.057335988 0.044192683 0.014335722 -0.059673354 0.0042655068 0.07953106
-0.033197902 0.0074841306 0.03021473 0.049937136 0.06766491 0.008918736 0.021004861 0.11871664
0.058103442 0.04610795 -0.041306533 -0.028300773 -0.03141743 -0.06843065 0.07850381 0.058567148
-0.00711713 0.019273587 -0.048338074 -0.08855002 -0.037180696 0.110082954 -0.03659679 0.07699088
0.04088843 0.031449422 -0.04398351 -0.043954134 0.12060748 -0.0346699 0.012741637 0.07446993
0.00437461 0.039814312 -0.0442999 -0.06061413 0.07856906 -0.11756233 -0.021203028 -0.13321008
-0.026611174 -0.03591632 -0.070521414 -0.0057057375 -0.03616276 -0.0104836775 -0.065982655 -0.01931563
-0.0075784996 0.09042174 -0.01753558 0.04984882 -0.06093785 -0.0076473057 -0.030441273 0.0066848695
0.020772079 -0.053884253 0.011575582 -0.06401599 -0.009761476 0.102149874 -0.04111615 0.09627707
-0.045247845 0.11322125 0.024107995 -0.039976545 -0.00025965396 -0.016792968 0.06745957 0.037455086
-0.02266665 -0.021408133 -0.058676556 -0.03538212 -0.013798796 0.07489048 0.020581113 -0.007061018
0.14903632 0.09235547 0.025193617 -0.062391236 0.13304114 -0.000579983 -0.013366701 -0.011385802
-0.010743817 0.052753355 0.11738511 -0.017424814 0.088066086 0.12655671 -0.054143503 -0.033182077
0.071225345 -0.06085623 0.074795246 -0.023530627 0.0332533 0.09542761 0.15787278 0.03815544
-0.036299396 0.0316757 0.03989638 0.12876761 0.08060217 0.017162994 0.0014374182 0.006901093
-0.042237572 0.010428988 0.0008253244 -0.055154607 0.016732262 0.08358162 0.013729361 -0.015137703
-0.067797005 0.024449382 0.057537384 -0.045435883 -0.031561233 0.0011964197 -0.03500212 0.073276594
0.099056855 0.018834751 0.15539898 -0.055346675 0.0044296607 -0.055494137 -0.03435839 0.010832295
0.040124074 -0.028868778 -0.06907912 0.060818683 0.16365594 -0.016299829 -0.04186783 0.017005557
0.0010108799 0.016958933 0.060523123 0.0027193725 -0.05205536 0.03425543 0.022933012 -0.046074346
0.098449714 -0.016766593 0.072743885 0.060921278 0.14297193 -0.010226797 0.1739492 0.00037098015
0.0043082777 -0.019659603 0.07605366 -0.0115831755 -0.058895346 0.016974328 -0.019719234 -0.022603959

net.3.weight f4 [4, 256]
00000000: dbe1 90be 6b73 57bc bf54 71be 8001 79be
00000010: 5c92 8bbe 3b52 8dbe de6a 463e cd77 5b3d
00000020: a349 5d3e 9ec2 76be 9d36 6a3e d896 03bd
00000030: 3c2d 5e3e 903e 0a3d c63f 133d 3d36 f13c
00000040: 757d 283d f039 0bbc d91c 72be 3686 33be
00000050: 6510 343e 1c79 133d 3b38 3a3d 72b9 823e
00000060: aee3 86be 3beb 62be 8ab5 7bbe 9fc8 72be
00000070: 68ce 813c 9452 85be 687b 3bbe 6804 58bc
00000080: 225a 4f3e c601 28bc 1063 60bd 9d20 65be
00000090: 1df8 8cbe 40a7 2cbc 5056 8f3c 0f84 753e
000000a0: 32e6 8c3e 0ec9 6bbe 9369 8b3e 3c2b 8b3e
000000b0: 7d8a 5f3c c6bb 283d 44f1 73be 170a 6ebe
000000c0: 506c 573e 43ad e6bc 5ef6 02bd 9a52 183d
000000d0: 962a 57bd e05d 5cbb bdc5 68be 6774 93be
000000e0: 3f2b 34be b0fa a7bc 0d52 51be a73e 843e
000000f0: 480e b33c 1ba9 73be 5445 94be 183a 153c
00000100: 7a0d 593d d9b5 95bc 5cb2 65be 715a 883c
00000110: cad9 7a3d 5d15 993e f8c8 343d b4df 403e
00000120: 8079 3ebc 6fb5 79be 5053 693e 5a15 ed3c
00000130: e4de 25bd b089 6b3e e49d b2bc e4d1 8c3e
00000140: fbe4 1cbb a032 4abd ea95 18bc 1104 6b3e
00000150: 3ba3 73be e02d 1d3c d835 66be c29e 12be
00000160: 8cf5 c8bc 1c10 16bd ac7c 963e 4a21 7bbe
00000170: 1e3a 6ebe 1a98 453d f315 2dbd ad56 213e
00000180: e735 853e 0722 cfbc d123 fd3b 713c 3dbd
00000190: 76e0 41bd ac10 91be d97a 393e cfa9 3ebe
000001a0: bd16 883e 5619 213d 12d9 80be 69bb 68be
000001b0: 07a1 283d f0fc 653e 7054 f7bb 1d80 5fbe
000001c0: 236f 31be cc24 5f3e 1c28 b43c fa33 083d
000001d0: 6f19 e0bd 162d 423d 66ae 3ebe 0180 59be
000001e0: e77c 383e eff5 4e3e 25db 15bd fd46 32bc
000001f0: e13d a13e 1769 ee3d c5b8 83be 54ad 62be
00000200: 73e6 4bbe 1cb1 40bd 3284 5bbe 7b41 503e
00000210: 1113 43be 7226 0b3b b4f5 5abd 54bb 9bbc
00000220: f867 80bc f6af 903e 1cc5 46be 9cfc 773e
00000230: 1039 b8bb e4d3 77bd 877a 393d 607e ca3c
00000240: 2975 67be 7216 313c 212a 4b3e 6c59 873e
00000250: dade 0b3d 1c7f 913e 196b 583e 1c1c 8c3e
00000260: 6451 05bd d9e1 8cbe 8176 1abb 8b33 113d
00000270: f7e5 88be 0485 d0bc 5901 74be 56f1 6fbe
00000280: 27da 6abe 5c6f 5cbd 832c 8fbc 58ab 7abc
00000290: f877 de3c 5d21 913e e499 71be 334b 5fbe
000002a0: 4eaf 57be 9d99 6b3e aaa8 5d3e 2a31 35bd
000002b0: 359c 783e 74ca 06bd f996 603d 859c 523c
000002c0: e3c8 8fbe eec5 6ebe fdaa 74be 802f 4b3b
000002d0: 6941 803e f4e5 873e 9dc0 78be 8839 d1bc
000002e0: 1ed0 5d3e 008b 27bc 36ba 43be 75fd 99be
000002f0: 1c9e 85be e2f8 773e 2c9b 57be 7108 77be
00000300: e7a1 813e 99af 3b3e 1e34 28be 002d 753e
00000310: a3b7 1c3e a01c dcbb 08fe 5abc a0c2 28bd
00000320: 18bd 65bc eacc 1e3d 9780 e83c e014 f6bc
00000330: 54fa d8bc 509f 7ebe 3836 91bd 8cf6 a9bc
00000340: 8f09 1a3d cd77 543e 09cf 863e 9fc8 51be
00000350: 10ff 7c3c 83c1 803e a0cb 3cbc 8472 143e
00000360: 9061 653e a811 6cbc 30e5 873e 8011 11bb
00000370: 30d4 e0bc 5a7d 3ebd 2068 dc3b 2021 9cbc
00000380: d3ef 783e 8f29 4cbe 5d0e 573d 53e9 75be
00000390: f5bc 7b3e 3e24 6ebd ccd3 263d d184 19be
000003a0: 38ae e3bc 9095 873e 3fe9 6cbe 680d 0bbc
000003b0: 50b4 193d b4b5 96bc 32c3 a9b9 4805 a3bc
000003c0: e2ce 8c3e 9c30 d5bc 4ca4 60be 5c89 6c3e
000003d0: f4cf 72be 4126 b23c a4fb 68be cfc4 273d
000003e0: 541b 88be 1926 7ebe 8dbd 5f3e 4c56 473c
000003f0: 71ad 163d ee62 06bc eb21 7e3e 16c0 4e3d
-0.28297314 -0.013150076 -0.23567484 -0.24316978 -0.272601 -0.276018 0.19376704 0.053581048
0.21610121 -0.24097678 0.22872396 -0.032126278 0.21696943 0.03375107 0.03594949 0.029444808
0.04113527 -0.0084977 -0.23643817 -0.17531666 0.17584379 0.03600417 0.04546378 0.2553211
-0.2634558 -0.22160046 -0.2458097 -0.23709343 0.015845492 -0.26039565 -0.18308794 -0.013184644
0.20249227 -0.010254329 -0.054781973 -0.22375722 -0.27533045 -0.010537922 0.017497212 0.23976158
0.27519375 -0.23025915 0.27228984 0.27181423 0.013643858 0.0411947 -0.23822504 -0.23246036
0.21037412 -0.02815879 -0.031973235 0.03718815 -0.052530847 -0.003362529 -0.22731681 -0.28799745
-0.17594622 -0.02050528 -0.20441456 0.2582905 0.021857396 -0.23794977 -0.28959143 0.009108089
0.052991368 -0.018275188 -0.2243132 0.016644688 0.061242856 0.2989911 0.04413697 0.18835336
-0.011625648 -0.24385618 0.22785687 0.028940845 -0.04049577 0.23001742 -0.021803804 0.27503884
-0.0023940194 -0.049364686 -0.009313086 0.2295077 -0.23792736 0.009593457 -0.22481477 -0.14318374
-0.024531148 -0.036636457 0.29391992 -0.24524418 -0.23264357 0.04824076 -0.04225726 0.1575572
0.26017687 -0.02528478 0.007725217 -0.04620022 -0.047333203 -0.28333032 0.18113269 -0.18619464
0.26579848 0.039330803 -0.25165612 -0.22727741 0.041169193 0.22459769 -0.0075479075 -0.21826215
-0.17327552 0.2179138 0.021991782 0.033252694 -0.10942351 0.04740628 -0.18621215 -0.21240236
0.18016396 0.20211004 -0.036585946 -0.010881183 0.31492522 0.11641138 -0.25726905 -0.22136432
-0.19912128 -0.047043905 -0.21437147 0.20337479 -0.19050242 0.0021232632 -0.053456977 -0.019010223
-0.015674576 0.28259248 -0.19411129 0.24217457 -0.0056220368 -0.06050481 0.045282867 0.024718463
-0.22603287 0.010808574 0.1984029 0.2643541 0.034148075 0.2841729 0.21134605 0.27365196
-0.032548323 -0.27516058 -0.002356917 0.035449546 -0.2673795 -0.025454052 -0.23828639 -0.23431906
-0.22934781 -0.053817138 -0.01747728 -0.015299641 0.027156815 0.28345767 -0.23593861 -0.2180603
-0.21062967 0.23007818 0.21646371 -0.04423634 0.24278338 -0.032907918 0.05483148 0.0128547
-0.28082952 -0.23317692 -0.23893352 0.0031003654 0.25049904 0.26542628 -0.24292226 -0.025540128
0.21661422 -0.010226011 -0.19114003 -0.30076185 -0.2609719 0.24216035 -0.21055287 -0.24124314
0.25318834 0.18328704 -0.16426131 0.23942947 0.15304427 -0.0067172796 -0.01336623 -0.041201234
-0.014022134 0.03876964 0.028381629 -0.03003925 -0.026486553 -0.2486546 -0.070904195 -0.020747446
0.037606772 0.20748825 0.2632983 -0.20486687 0.015441671 0.25147638 -0.011523157 0.14496809
0.22400498 -0.014408506 0.26542044 -0.0022135675 -0.027444929 -0.046506263 0.00672628 -0.019058764
0.24310236 -0.19937728 0.052503932 -0.24014787 0.245838 -0.058140032 0.04072933 -0.14992072
-0.027793035 0.26481295 -0.23135851 -0.008487083 0.037525475 -0.01839719 -0.00032379624 -0.01989998
0.2750159 -0.026024155 -0.21937674 0.23099273 -0.2371214 0.021746757 -0.22752243 0.040959176
-0.2658335 -0.2481922 0.21849652 0.012166571 0.0367865 -0.008202298 0.24817626 0.050476156

net.3.bias f4 [4]
00000000: 2a11 8a3b dee5 c13d 4ac1 643b 7923 69bd
0.004213472 0.09467672 0.0034905248 -0.056918595
