guitar_text/models/knob_regressor_net.pth (torch, 709725 bytes, 20 tensors)

network.0.weight f4 [256, 512]
0	0x00ced6f5	1.8995224e-38
1	0x81009e9c	-2.3623684e-38
2	0x80869f37	-1.2363072e-38
3	0x81b9f77b	-6.8313384e-38
4	0x0199ea47	5.6539495e-38
5	0x8085a192	-1.2272081e-38
6	0x80ab62ad	-1.5739268e-38
7	0x001e1fd2	2.76648e-39
8	0x006833f0	9.569523e-39
9	0x00d01f9a	1.911312e-38
10	0x00aa2b71	1.5627618e-38
11	0x01ae8548	6.4108755e-38
12	0x0003c466	3.45961e-40
13	0x81985ebd	-5.5971924e-38
14	0x0154745b	3.902173e-38
15	0x806eddab	-1.0181424e-38
16	0x01afec22	6.462368e-38
17	0x80aed482	-1.605561e-38
18	0x81238887	-3.0036325e-38
19	0x0092e584	1.3490317e-38
20	0x011e0c52	2.9028856e-38
21	0x80e75d46	-2.124746e-38
22	0x010872f3	2.5061727e-38
23	0x802909c9	-3.768766e-39
24	0x81912613	-5.331922e-38
25	0x013b2b2a	3.4377444e-38
26	0x017e2381	4.6677905e-38
27	0x01931b51	5.403847e-38
28	0x00d45c6f	1.9502284e-38
29	0x8184fd7c	-4.8852874e-38
30	0x0198c52f	5.6118926e-38
31	0x8029e9b6	-3.849095e-39
32	0x0090a15c	1.3282196e-38
33	0x007523b3	1.075756e-38
34	0x00482384	6.624896e-39
35	0x00ef7166	2.1989363e-38
36	0x002c6114	4.075587e-39
37	0x80fdba4a	-2.3301208e-38
38	0x00eaf0d3	2.1575898e-38
39	0x01881348	4.9986177e-38
40	0x01685f70	4.2680143e-38
41	0x8105a6c0	-2.454788e-38
42	0x00dbe4c5	2.0194041e-38
43	0x80f8eb65	-2.2859647e-38
44	0x801b82d4	-2.52649e-39
45	0x01796032	4.5803094e-38
46	0x80d4644d	-1.9505106e-38
47	0x014e866a	3.7932662e-38
48	0x8093cdc1	-1.3573629e-38
49	0x807f0cd5	-1.1667711e-38
50	0x8176b95c	-4.5316053e-38
51	0x0124a9a9	3.0243768e-38
52	0x80f90191	-2.28676e-38
53	0x00cd2ca1	1.8842287e-38
54	0x01aeacab	6.416527e-38
55	0x80613dc6	-8.930203e-39
56	0x00929405	1.3461082e-38
57	0x8117782a	-2.7820533e-38
58	0x81979c36	-5.569279e-38
59	0x80b516df	-1.663043e-38
60	0x003f0135	5.786069e-39
61	0x80da81ef	-2.006675e-38
62	0x000701e9	6.43534e-40
63	0x817695e7	-4.5290614e-38
64	0x0182c572	4.803778e-38
65	0x804fa0d5	-7.3127e-39
66	0x0121d54c	2.9724063e-38
67	0x801d7958	-2.70676e-39
68	0x811eb2ad	-2.914821e-38
69	0x80b546f3	-1.6647677e-38
70	0x8186580a	-4.9350156e-38
71	0x0102f1cc	2.405071e-38
72	0x816c2d9e	-4.3379083e-38
73	0x001353ed	1.774981e-39
74	0x01464c36	3.6421535e-38
75	0x01b0e914	6.498664e-38
76	0x8134907c	-3.316444e-38
77	0x0197eca8	5.5808225e-38
78	0x018a2862	5.075114e-38
79	0x00649236	9.236e-39
80	0x003b07bb	5.421067e-39
81	0x00764c89	1.0864044e-38
82	0x00777157	1.0969083e-38
83	0x81888e40	-5.016263e-38
84	0x01aa7668	6.261804e-38
85	0x00a500cb	1.5153141e-38
86	0x8193c6cc	-5.428453e-38
87	0x80891ab5	-1.2591044e-38
88	0x011a53f8	2.8345577e-38
89	0x81bb11e6	-6.8718634e-38
90	0x00641a89	9.193069e-39
91	0x001bbdb3	2.54761e-39
92	0x016fd732	4.4051762e-38
93	0x0072ff44	1.0560819e-38
94	0x001bd5f5	2.556312e-39
95	0x801aeb93	-2.472231e-39
96	0x80c11bfe	-1.7734292e-38
97	0x01185ebe	2.7985965e-38
98	0x810c82b8	-2.5807725e-38
99	0x8009825c	-8.73284e-40
100	0x00f4c1d6	2.2477396e-38
101	0x01b8ec62	6.793012e-38
102	0x813020f8	-3.2349749e-38
103	0x004e9c10	7.219153e-39
104	0x011a8bb2	2.838556e-38
105	0x015b8302	4.031794e-38
106	0x818eac1e	-5.240954e-38
107	0x806615ff	-9.375111e-39
108	0x80089d88	-7.91196e-40
109	0x80fb848f	-2.3098263e-38
110	0x005a0273	8.266073e-39
111	0x805110b6	-7.44467e-39
112	0x0151bc62	3.8522395e-38
113	0x818f1f98	-5.257524e-38
114	0x0039ddd8	5.314206e-39
115	0x004d5834	7.102975e-39
116	0x818c5b95	-5.155929e-38
117	0x80e34977	-2.0873012e-38
118	0x8105e619	-2.459333e-38
119	0x81a2c582	-5.979281e-38
120	0x8020ca41	-3.011291e-39
121	0x802779f2	-3.62533e-39
122	0x007e778b	1.1614156e-38
123	0x804a8cbb	-6.846311e-39
124	0x00a3135a	1.4976128e-38
125	0x017955ee	4.579573e-38
126	0x00b9bc77	1.7057175e-38
127	0x00010f07	9.7226e-41
128	0x81b5fe76	-6.685403e-38
129	0x80c05e12	-1.7666161e-38
130	0x00fa36d2	2.297854e-38
131	0x000da953	1.254604e-39
132	0x80cf01f1	-1.9010644e-38
133	0x817ce706	-4.645084e-38
134	0x80c87dc6	-1.8412218e-38
135	0x007d04f4	1.1481214e-38
136	0x006d7977	1.0053642e-38
137	0x81b5eee5	-6.6831696e-38
138	0x00f68a39	2.2641117e-38
139	0x00360081	4.959298e-39
140	0x8034a90c	-4.836088e-39
141	0x01b40a30	6.6136176e-38
142	0x8139b572	-3.4109314e-38
143	0x01adcb5a	6.384196e-38
144	0x80341d99	-4.786063e-39
145	0x00900cf1	1.3228954e-38
146	0x019d364a	5.775059e-38
147	0x81353a17	-3.3286127e-38
148	0x80483653	-6.631644e-39
149	0x005b241e	8.369987e-39
150	0x00863b4b	1.2327227e-38
151	0x0109bd08	2.529855e-38
152	0x81979d85	-5.569467e-38
153	0x80c2ba62	-1.7882948e-38
154	0x007b2e53	1.1312384e-38
155	0x00bac5b6	1.7152328e-38
156	0x80627ca1	-9.044587e-39
157	0x813e1d6b	-3.4918595e-38
158	0x817bfd71	-4.6283254e-38
159	0x00dce023	2.0284214e-38
160	0x81a671c6	-6.1142026e-38
161	0x0195f060	5.5078877e-38
162	0x01971705	5.550167e-38
163	0x00a8adde	1.5490735e-38
164	0x00ef2a30	2.1963818e-38
165	0x80f39280	-2.236858e-38
166	0x80f498c2	-2.246266e-38
167	0x0162353c	4.1547838e-38
168	0x81b432d8	-6.6194514e-38
169	0x817b2720	-4.612949e-38
170	0x81aeb13e	-6.4171835e-38
171	0x0094d12c	1.366669e-38
172	0x808c0943	-1.2860292e-38
173	0x812ff4d8	-3.231809e-38
174	0x01872f72	4.965925e-38
175	0x80a636f9	-1.5264413e-38
176	0x016dedca	4.370063e-38
177	0x80e362c1	-2.0882084e-38
178	0x019d2921	5.773171e-38
179	0x01b13a01	6.5102763e-38
180	0x009bbe3b	1.4302744e-38
181	0x00000fc3	5.654e-42
182	0x018b51fd	5.1178183e-38
183	0x81865bad	-4.9355374e-38
184	0x0090a7dc	1.3284528e-38
185	0x816529be	-4.2090606e-38
186	0x0048b155	6.67577e-39
187	0x817fa87a	-4.695698e-38
188	0x010852de	2.503871e-38
189	0x80af76be	-1.6113808e-38
190	0x0069629c	9.678101e-39
191	0x80642334	-9.196178e-39
192	0x80ba92d4	-1.7134074e-38
193	0x0034445c	4.799969e-39
194	0x00105c7a	1.502542e-39
195	0x01a9f948	6.2438496e-38
196	0x819489bc	-5.4564253e-38
197	0x805b09d0	-8.36055e-39
198	0x815c0084	-4.0407988e-38
199	0x005c6454	8.484857e-39
200	0x01207c22	2.947642e-38
201	0x8086aedc	-1.2368684e-38
202	0x8146b95a	-3.649984e-38
203	0x803f9298	-5.838224e-39
204	0x81857342	-4.902187e-38
205	0x8107534a	-2.485534e-38
206	0x810a1d7d	-2.5367754e-38
207	0x817326b7	-4.4659828e-38
208	0x80d4afa8	-1.9532139e-38
209	0x81626337	-4.1580827e-38
210	0x00cfb931	1.9076382e-38
211	0x819a3245	-5.66428e-38
212	0x00915f37	1.3350304e-38
213	0x00a4f5ac	1.5149152e-38
214	0x8054dec6	-7.794098e-39
215	0x01a76e21	6.150414e-38
216	0x0003e5ab	3.57896e-40
217	0x80b3f4fd	-1.6526439e-38
218	0x815ccc76	-4.0554312e-38
219	0x018042b3	4.711548e-38
220	0x0012aabd	1.714288e-39
221	0x806077bd	-8.859162e-39
222	0x801cdab0	-2.649844e-39
223	0x80a2141d	-1.4884566e-38
224	0x80271505	-3.589125e-39
225	0x0072c21c	1.053888e-38
226	0x806b0b1c	-9.830383e-39
227	0x010f747e	2.634853e-38
228	0x80847ed3	-1.2167781e-38
229	0x01a38907	6.007337e-38
230	0x81a44843	-6.0347776e-38
231	0x0098689b	1.3996521e-38
232	0x010f674a	2.6339058e-38
233	0x00687aa6	9.59489e-39
234	0x0043ef75	6.238879e-39
235	0x80c3848d	-1.7955472e-38
236	0x819e5c8c	-5.817283e-38
237	0x80cab417	-1.8615374e-38
238	0x00acae86	1.5858313e-38
239	0x8195f9bb	-5.50923e-38
240	0x812d0599	-3.1779098e-38
241	0x80172413	-2.125157e-39
242	0x8199a1f2	-5.6435704e-38
243	0x016bb8ce	4.3295274e-38
244	0x80b64196	-1.6737588e-38
245	0x018e9328	5.237372e-38
246	0x0093fbc8	1.359014e-38
247	0x8017aa20	-2.173246e-39
248	0x0060a279	8.874492e-39
249	0x000376f4	3.18179e-40
250	0x81a6b0e0	-6.123257e-38
251	0x00577c26	8.034224e-39
252	0x80e56eae	-2.1070033e-38
253	0x80ec75d1	-2.1715442e-38
254	0x019ecbb4	5.8332333e-38
255	0x80c22e3e	-1.7832675e-38

network.0.bias f4 [256]
0	0x81869494	-4.9437025e-38
1	0x808024b0	-1.1768105e-38
2	0x013b8d34	3.4447784e-38
3	0x343f544c	1.7818928e-07
4	0x01bb69b4	6.884463e-38
5	0xb38bd8aa	-6.512103e-08
6	0x00f896d8	2.2829316e-38
7	0x01274158	3.0719938e-38
8	0xb4852984	-2.4803387e-07
9	0xb3ffc6c8	-1.1910521e-07
10	0x0157c750	3.9632263e-38
11	0x01748764	4.491286e-38
12	0x80571ed0	-8.000742e-39
13	0x011eaaec	2.9142647e-38
14	0x33566abf	4.9922843e-08
15	0x3445c783	1.8419637e-07
16	0x8175e4e4	-4.5163614e-38
17	0xb0b06000	-1.283297e-09
18	0x0190c8a4	5.318515e-38
19	0x80175830	-2.143852e-39
20	0x809d4bd0	-1.4445369e-38
21	0x017e277c	4.668076e-38
22	0x351f32ff	5.9306325e-07
23	0xb40a3463	-1.287131e-07
24	0xb5564978	-7.9828123e-07
25	0x8199d45c	-5.6508044e-38
26	0xb4230068	-1.5180706e-07
27	0x80a5a5a0	-1.5212272e-38
28	0x00c94040	1.8481983e-38
29	0xb283fdf1	-1.5365886e-08
30	0xb42d9d1e	-1.616904e-07
31	0x33017d6b	3.014922e-08
32	0x338fda28	6.698639e-08
33	0x805ff530	-8.812329e-39
34	0x34bd16cf	3.522059e-07
35	0x800ce8b8	-1.18551e-39
36	0x019f6dfc	5.8565195e-38
37	0xb5280951	-6.2598434e-07
38	0x348912dd	2.5531963e-07
39	0x0113ff94	2.7183004e-38
40	0x808e98e8	-1.3095493e-38
41	0x81540298	-3.894011e-38
42	0x3344b3c7	4.5798313e-08
43	0x007cb388	1.1452005e-38
44	0x0156fb50	3.94859e-38
45	0x00bee1b8	1.7529717e-38
46	0xb4235583	-1.5211667e-07
47	0x00296968	3.803068e-39
48	0x805bef20	-8.442812e-39
49	0x81b07960	-6.4826354e-38
50	0x35880d78	1.013671e-06
51	0x8162fc3c	-4.1690614e-38
52	0x348bb961	2.6025648e-07
53	0x819f5794	-5.8533044e-38
54	0x349f2b86	2.9647725e-07
55	0xb43313f5	-1.6677934e-07
56	0x819b9d72	-5.716393e-38
57	0x00908cc8	1.3274814e-38
58	0x8150ac50	-3.8327195e-38
59	0x810a2388	-2.537209e-38
60	0x00b0ee00	1.6248426e-38
61	0x00dd3128	2.0313279e-38
62	0xb4ba6729	-3.472026e-07
63	0x816d0788	-4.3535429e-38
64	0xb3f277f8	-1.1290825e-07
65	0xb503030a	-4.8805725e-07
66	0x00d443b8	1.9493418e-38
67	0x337b1be2	5.846585e-08
68	0x016c10e8	4.3358484e-38
69	0x008af848	1.2762365e-38
70	0x34197b4f	1.4294095e-07
71	0x01b3c294	6.603342e-38
72	0xb52d024c	-6.4450865e-07
73	0x8078e0b0	-1.1100862e-38
74	0x80543e68	-7.736569e-39
75	0xb317e82b	-3.5368583e-08
76	0x353015b5	6.5596697e-07
77	0x8161695c	-4.1401565e-38
78	0x00d063b8	1.9137556e-38
79	0x0184a134	4.8720457e-38
80	0x33768328	5.7395624e-08
81	0x81a77e20	-6.152709e-38
82	0xb40bc67c	-1.3017592e-07
83	0x80426278	-6.096467e-39
84	0x0149263c	3.69453e-38
85	0xb3ff2ed3	-1.188288e-07
86	0x812b6600	-3.148092e-38
87	0x80592db0	-8.189749e-39
88	0xb44216bd	-1.807593e-07
89	0x8036b0b0	-5.0225e-39
90	0x0140f490	3.5440296e-38
91	0x8176bb90	-4.5317634e-38
92	0xb48dace1	-2.6389083e-07
93	0x01a03f3c	5.8865454e-38
94	0x330cd750	3.2792116e-08
95	0x81a7156c	-6.137685e-38
96	0x8105c374	-2.4568473e-38
97	0x80cfa330	-1.9068488e-38
98	0x338a98ac	6.4538966e-08
99	0xb3172bfb	-3.5197427e-08
100	0x01b489d8	6.6319353e-38
101	0x0119a4e0	2.8219954e-38
102	0x3471ef05	2.2531829e-07
103	0x805548b8	-7.832104e-39
104	0x34588d66	2.0168008e-07
105	0x80d01c60	-1.9111962e-38
106	0x3571e000	9.010546e-07
107	0x007b5998	1.1327906e-38
108	0xb35b7db1	-5.1104227e-08
109	0x0018dd38	2.28341e-39
110	0xb3010ccc	-3.004679e-08
111	0x81549d2c	-3.9051016e-38
112	0x81b73baa	-6.7309197e-38
113	0x34ac66f1	3.2112396e-07
114	0x3472b822	2.2604993e-07
115	0x336a5418	5.4558853e-08
116	0x34bcdd8d	3.5178928e-07
117	0xb327c429	-3.9061124e-08
118	0x33a29e60	7.572521e-08
119	0x00dfa010	2.0536735e-38
120	0x3446b7f8	1.8507114e-07
121	0xb3f712ba	-1.150524e-07
122	0x31bb9ae8	5.460027e-09
123	0x01ba945c	6.8538494e-38
124	0x003087b8	4.45679e-39
125	0x819a9706	-5.6787374e-38
126	0x80417410	-6.010943e-39
127	0x33317b6c	4.1323275e-08
128	0xb50a6f7f	-5.1571254e-07
129	0xb336c809	-4.2557108e-08
130	0x019fb52c	5.8667344e-38
131	0x33f08560	1.1200132e-07
132	0xb4b1e3f5	-3.313468e-07
133	0x003265b0	4.628253e-39
134	0xb3ac2db1	-8.0176854e-08
135	0xb2dc1818	-2.5622327e-08
136	0x01707cbc	4.417053e-38
137	0x018a117c	5.071828e-38
138	0x33fef56e	1.187244e-07
139	0x00a09c40	1.4749731e-38
140	0xb45fdf1b	-2.0849659e-07
141	0xb4904ed8	-2.6879457e-07
142	0x803d9ac0	-5.657479e-39
143	0x81a14ea6	-5.9254914e-38
144	0x00b0d830	1.6240601e-38
145	0x81267460	-3.057288e-38
146	0x81a6b610	-6.1240016e-38
147	0x00fe0ed0	2.333153e-38
148	0xb496423d	-2.7987872e-07
149	0xb594570f	-1.1052197e-06
150	0xb41737ca	-1.4083267e-07
151	0x015e9cc0	4.0887423e-38
152	0xb4176240	-1.4098714e-07
153	0x81843b62	-4.857435e-38
154	0x8149420c	-3.6965256e-38
155	0x81968804	-5.529647e-38
156	0x33242468	3.8217337e-08
157	0x817385e8	-4.4728124e-38
158	0x0193156a	5.403e-38
159	0x81286dc0	-3.0935468e-38
160	0x80db5108	-2.0141042e-38
161	0x81a7c99c	-6.1635407e-38
162	0x81b99518	-6.8172206e-38
163	0x81938438	-5.4188996e-38
164	0x018d1f3e	5.184005e-38
165	0x8049dbd0	-6.782845e-39
166	0xb5e4b860	-1.7040984e-06
167	0x0191ee4e	5.360654e-38
168	0x33ff34c0	1.1883958e-07
169	0x007e1568	1.1578952e-38
170	0x81a17bb6	-5.9319576e-38
171	0xb4d084d8	-3.8839676e-07
172	0xb4273eda	-1.5575952e-07
173	0x32bb34ca	2.179367e-08
174	0x0165e65c	4.2225932e-38
175	0x34064e2e	1.2508164e-07
176	0x8013d1b8	-1.820107e-39
177	0x817983a0	-4.5828513e-38
178	0x8105f4a8	-2.4603774e-38
179	0x01982448	5.588804e-38
180	0x81bacd5e	-6.8620297e-38
181	0xb4867ca9	-2.5050147e-07
182	0x33c98c02	9.385259e-08
183	0xb31c103c	-3.6336345e-08
184	0x01b84b14	6.7698657e-38
185	0x00c629a8	1.8198372e-38
186	0xb50a6d3d	-5.156797e-07
187	0x00c42a68	1.801497e-38
188	0x011c06f4	2.8657663e-38
189	0x01a20470	5.951577e-38
190	0x81b7efcc	-6.7567675e-38
191	0xb4892007	-2.5541542e-07
192	0xb4924805	-2.724702e-07
193	0x01a5785a	6.0784123e-38
194	0x32de6800	2.5891495e-08
195	0x010f1d60	2.6286027e-38
196	0xb425e906	-1.5451596e-07
197	0x01842e92	4.8555967e-38
198	0x8168f680	-4.2788525e-38
199	0x81241034	-3.0133668e-38
200	0x8002e8e8	-2.67222e-40
201	0x33ff85fc	1.18987344e-07
202	0x34c45751	3.6571376e-07
203	0xb49c28c7	-2.9086934e-07
204	0x0007f788	7.31646e-40
205	0x8177159c	-4.538224e-38
206	0x804f68e8	-7.292637e-39
207	0x341cacb4	1.4591461e-07
208	0x34bc3732	3.505789e-07
209	0xb3f7e9a1	-1.1544331e-07
210	0x34cb6224	3.7883103e-07
211	0x8180443c	-4.7117686e-38
212	0x814e0f1c	-3.7847065e-38
213	0x00f17e78	2.2177723e-38
214	0x81969d66	-5.5327153e-38
215	0xb479ecaa	-2.327603e-07
216	0x80d30fd0	-1.9382962e-38
217	0x016516f8	4.2077137e-38
218	0xb43fb536	-1.7854185e-07
219	0x8114715c	-2.7264638e-38
220	0x01414fb8	3.5505697e-38
221	0xb34e6bc8	-4.806114e-08
222	0x3553d3dd	7.8911927e-07
223	0x343a2ce2	1.7338928e-07
224	0x0003fa28	3.65246e-40
225	0x3451e5c4	1.954823e-07
226	0x0107a6b0	2.4915176e-38
227	0x0115a890	2.7487916e-38
228	0x0129c02c	3.1178274e-38
229	0x3314ebb4	3.4673306e-08
230	0x00a12390	1.4798272e-38
231	0x819204fc	-5.363908e-38
232	0xb382bb28	-6.08764e-08
233	0xb38978b8	-6.401518e-08
234	0xb4ae6e9c	-3.2490505e-07
235	0x8175499c	-4.5052205e-38
236	0x011f7990	2.9290905e-38
237	0x3492c626	2.733879e-07
238	0x337cf0ae	5.889222e-08
239	0x341de854	1.4706285e-07
240	0x80b423f0	-1.6543281e-38
241	0x33147406	3.4564458e-08
242	0xb4c06987	-3.5839568e-07
243	0x80039220	-3.27926e-40
244	0x819c99ae	-5.752587e-38
245	0x3495d7bc	2.791038e-07
246	0x34b16023	3.3038768e-07
247	0xb421cbfc	-1.5068503e-07
248	0xb3ae4b5d	-8.116215e-08
249	0x347802c1	2.3097802e-07
250	0x81a77064	-6.1507384e-38
251	0x00677650	9.501499e-39
252	0x012f86d0	3.2239147e-38
253	0x8175b550	-4.5129478e-38
254	0x813d8310	-3.480785e-38
255	0xb3f120be	-1.1228393e-07

network.1.weight f4 [256]
0	0x8094c8b4	-1.3663652e-38
1	0x80bab204	-1.7145262e-38
2	0x80849f61	-1.217946e-38
3	0x3e0664c4	0.13124377
4	0x019252e8	5.3750894e-38
5	0x3e156bec	0.1459195
6	0x80a17659	-1.482797e-38
7	0x80868411	-1.2353333e-38
8	0x3de26b65	0.1105564
9	0x3e79f63c	0.24410337
10	0x806540e9	-9.29867e-39
11	0x805804c4	-8.083233e-39
12	0x807fff9b	-1.1754802e-38
13	0x804e8df8	-7.214097e-39
14	0x3e062a12	0.13101986
15	0x3decf61c	0.11570379
16	0x805a0ecf	-8.270507e-39
17	0x3e288ca1	0.16459896
18	0x80a3020c	-1.496992e-38
19	0x807c995e	-1.144262e-38
20	0x80794ff5	-1.1140778e-38
21	0x80872bf5	-1.2413561e-38
22	0x3e4b7f71	0.19872834
23	0x3e18b3e3	0.14912371
24	0x3e4043a1	0.18775798
25	0x80a7384a	-1.535672e-38
26	0x3e53a405	0.20668037
27	0x80b71dce	-1.6816588e-38
28	0x809d0799	-1.4420898e-38
29	0x3e6ef0e3	0.23334078
30	0x3db71400	0.089393616
31	0x3e049268	0.12946475
32	0x3e35aad6	0.1774095
33	0x808a6e4e	-1.2712868e-38
34	0x3e516a86	0.20450792
35	0x8094d926	-1.3669552e-38
36	0x8069837a	-9.689892e-39
37	0x3e261aeb	0.16221206
38	0x3e1a51e7	0.15070306
39	0x80d702f0	-1.9745685e-38
40	0x810d8ddf	-2.5999397e-38
41	0x808f3f5c	-1.3155205e-38
42	0x3dc03916	0.09385888
43	0x8037ce1f	-5.124895e-39
44	0x806e7d4d	-1.0146854e-38
45	0x01d4e524	7.82053e-38
46	0x3e06956c	0.13142937
47	0x809a885d	-1.4191584e-38
48	0x806ca15e	-9.976121e-39
49	0x80592aa3	-8.188654e-39
50	0x3e7a018e	0.24414656
51	0x807741e7	-1.0952065e-38
52	0x3e384234	0.17994004
53	0x807cc347	-1.1457654e-38
54	0x3e447d60	0.19188452
55	0x3e03a64c	0.12856406
56	0x806463ea	-9.219392e-39
57	0x804c8321	-7.026538e-39
58	0x80eb6a75	-2.1619531e-38
59	0x805ca700	-8.508774e-39
60	0x80b8bc60	-1.6965308e-38
61	0x808abe52	-1.2741573e-38
62	0x3e6fc65f	0.23415516
63	0x8082808a	-1.1984726e-38
64	0x3e36df87	0.17858706
65	0x3e117d95	0.14208062
66	0x803545bd	-4.892299e-39
67	0x3e3a01f5	0.18164809
68	0x80821b88	-1.1948491e-38
69	0x808135af	-1.1866037e-38
70	0x3e0a24cd	0.13490601
71	0x8072a0f1	-1.0526981e-38
72	0x3e1921af	0.14954256
73	0x808de0da	-1.3029467e-38
74	0x809634d1	-1.3794271e-38
75	0x3e254340	0.16138935
76	0x3e52bad7	0.20579086
77	0x81a805fc	-6.172204e-38
78	0x807b33cc	-1.1314347e-38
79	0x80668b17	-9.417117e-39
80	0x3e025464	0.12727505
81	0x80a56c1c	-1.5191639e-38
82	0x3e10ec00	0.14152527
83	0x80955179	-1.3712716e-38
84	0x808942dc	-1.2605448e-38
85	0x3dd5803a	0.10424848
86	0x00b21483	1.6354077e-38
87	0x80b3f3e2	-1.6526042e-38
88	0x3e580935	0.21097262
89	0x80df976f	-2.053364e-38
90	0x8052fbf7	-7.620899e-39
91	0x80724605	-1.0494365e-38
92	0x3e3c3b15	0.18381913
93	0x8085f85c	-1.2303216e-38
94	0x3e164071	0.1467302
95	0x0119666c	2.8175146e-38
96	0x806dafbf	-1.0073115e-38
97	0x8089acd1	-1.2643458e-38
98	0x3e34a954	0.17642719
99	0x3dd231f3	0.10263433
100	0x807f9367	-1.1715986e-38
101	0x8080c0b7	-1.1824077e-38
102	0x3e01f617	0.12691532
103	0x806ffb72	-1.0283942e-38
104	0x3e419dd7	0.18907867
105	0x8091a1ca	-1.3374186e-38
106	0x3e20b2f0	0.15693259
107	0x809a3299	-1.4160817e-38
108	0x3e0ebf79	0.13940229
109	0x80496193	-6.738994e-39
110	0x3de55d2e	0.11199413
111	0x807206e1	-1.0471714e-38
112	0x80ae6a66	-1.6017545e-38
113	0x3e59de0f	0.21276115
114	0x3e003431	0.1251991
115	0x3e4082c1	0.18799879
116	0x3e09d2b8	0.13459289
117	0x3e6dcc52	0.23222473
118	0x3da8a783	0.08235075
119	0x80dd1b34	-2.0305403e-38
120	0x3e2b3e52	0.16722992
121	0x3de1130b	0.1098996
122	0x3d99e7b4	0.07514897
123	0x805eef06	-8.718282e-39
124	0x80347aee	-4.819545e-39
125	0x807acb1a	-1.127679e-38
126	0x809fc56a	-1.4672663e-38
127	0x3e41caad	0.18924971
128	0x3df95c88	0.12175852
129	0x3dcb8d2f	0.09939038
130	0x80873311	-1.2416111e-38
131	0x3e299272	0.1655977
132	0x3e1dff3e	0.15429398
133	0x8096d41b	-1.3851414e-38
134	0x3ddade56	0.106869385
135	0x3de42352	0.11139549
136	0x80aecd2c	-1.6052978e-38
137	0x80a2bf85	-1.4946055e-38
138	0x3e07e5fa	0.13271323
139	0x804ac12e	-6.865127e-39
140	0x3e2d252d	0.16908713
141	0x3e1ed33f	0.15510271
142	0x80766fe9	-1.0876734e-38
143	0x80b84c87	-1.6925184e-38
144	0x8054fe01	-7.805301e-39
145	0x8062f4e0	-9.087723e-39
146	0x80676260	-9.494346e-39
147	0x8072e906	-1.055284e-38
148	0x3e61d57a	0.22054091
149	0x3e22329c	0.15839618
150	0x3e39a33c	0.18128675
151	0x805c6d00	-8.487967e-39
152	0x3e0edf24	0.13952309
153	0x807af686	-1.1292366e-38
154	0x80636a28	-9.129796e-39
155	0x80ab5c6e	-1.5737027e-38
156	0x3e087a28	0.13327849
157	0x808cb022	-1.2920154e-38
158	0x8057e3f6	-8.071465e-39
159	0x8085cb92	-1.2287148e-38
160	0x80a18571	-1.4833385e-38
161	0x803d00b0	-5.602212e-39
162	0x8086c7b6	-1.2377599e-38
163	0x80752ce5	-1.0760858e-38
164	0x80892ed9	-1.2598269e-38
165	0x806a0685	-9.736901e-39
166	0x3e387920	0.18014956
167	0x808af444	-1.2760924e-38
168	0x3de1eb04	0.11031154
169	0x80f70575	-2.2685325e-38
170	0x80a8decd	-1.5508289e-38
171	0x3e2b6ea2	0.16741422
172	0x3dcbcb17	0.09950846
173	0x3dbe2e89	0.092862196
174	0x808264df	-1.19748e-38
175	0x3dce6006	0.10076909
176	0x808ac0f6	-1.274252e-38
177	0x808f1201	-1.3138935e-38
178	0x803a3df9	-5.34869e-39
179	0x805e6073	-8.667136e-39
180	0x80538130	-7.66869e-39
181	0x3e6002a6	0.2187601
182	0x3e2a8698	0.16652906
183	0x3e1b31a5	0.15155657
184	0x80854f31	-1.224253e-38
185	0x807e391f	-1.1591764e-38
186	0x3e4e4497	0.20143352
187	0x80b3a457	-1.6497508e-38
188	0x804b62f2	-6.923157e-39
189	0x00f9d4c0	2.2943359e-38
190	0x809a476f	-1.4168292e-38
191	0x3e0b96c9	0.13631739
192	0x3e19b55e	0.15010592
193	0x806bf079	-9.912663e-39
194	0x3e1f62dd	0.15565057
195	0x80813e93	-1.1869226e-38
196	0x3e336761	0.17519905
197	0x805c9593	-8.502523e-39
198	0x807d7efd	-1.1524992e-38
199	0x806150a5	-8.936973e-39
200	0x805f030b	-8.725464e-39
201	0x3e13cd4b	0.14433782
202	0x3dc92219	0.09820957
203	0x3e755a67	0.23960267
204	0x803846ef	-5.168234e-39
205	0x806e8dc0	-1.0152755e-38
206	0x80655db3	-9.308998e-39
207	0x3e44bbd5	0.19212277
208	0x3e563bfb	0.20921318
209	0x3e0f39b4	0.13986856
210	0x3dfc7f66	0.12328987
211	0x808192ad	-1.1899396e-38
212	0x80b1b916	-1.6321279e-38
213	0x804d461a	-7.096481e-39
214	0x8076f575	-1.0924642e-38
215	0x3e5f0103	0.2177773
216	0x8081aa18	-1.1907797e-38
217	0x808e6c24	-1.3079434e-38
218	0x3e2f5e71	0.1712587
219	0x8052ee54	-7.616007e-39
220	0x80904d6f	-1.325209e-38
221	0x3e5e77c4	0.21725374
222	0x3e4f6b83	0.20255856
223	0x3e0eff33	0.13964538
224	0x808ffb2d	-1.3222581e-38
225	0x3e102127	0.14075147
226	0x8107d7cc	-2.495041e-38
227	0x80c58423	-1.8138994e-38
228	0x80a47eb0	-1.5106468e-38
229	0x3e0ce4d9	0.13759173
230	0x80a42975	-1.5075893e-38
231	0x8048cf98	-6.686626e-39
232	0x3e143e00	0.14476776
233	0x3e31d5c8	0.17366707
234	0x3e2807bc	0.164092
235	0x809f5486	-1.4632165e-38
236	0x807510df	-1.0750805e-38
237	0x3e24777d	0.16061206
238	0x3db4e99d	0.08833621
239	0x3e74aba2	0.23893598
240	0x809af6fc	-1.4231268e-38
241	0x3e173e56	0.14769873
242	0x3e32bc14	0.17454559
243	0x8050b2bd	-7.410959e-39
244	0x80abb275	-1.5767888e-38
245	0x3e49301d	0.1964726
246	0x3e164827	0.14675961
247	0x3e1e5c72	0.15464953
248	0x3e123d06	0.14281091
249	0x3e267537	0.16255651
250	0x807245ee	-1.0494333e-38
251	0x8095408f	-1.3706648e-38
252	0x8055f02d	-7.892176e-39
253	0x809813ca	-1.3966094e-38
254	0x80801c39	-1.1765068e-38
255	0x3e202ebb	0.15642826

network.1.bias f4 [256]
0	0x807cb96f	-1.1454123e-38
1	0x8112536f	-2.6875826e-38
2	0x80131c27	-1.754974e-39
3	0xbd83f28e	-0.06442748
4	0x81b4ecff	-6.646163e-38
5	0xbc925de3	-0.017867034
6	0x810ef626	-2.6257884e-38
7	0x8031ac40	-4.561731e-39
8	0xbcf903cc	-0.030397318
9	0xbeaa8ead	-0.33311978
10	0x80cc89c8	-1.8783868e-38
11	0x81b57743	-6.666003e-38
12	0x811ae492	-2.8449324e-38
13	0x80eaaa74	-2.1550653e-38
14	0xbd73af8b	-0.059493583
15	0xbd07fd27	-0.03320041
16	0x8097faa2	-1.395707e-38
17	0xbd4deb12	-0.05027301
18	0x813a5f5f	-3.423123e-38
19	0x818967b9	-5.0474687e-38
20	0x813b192d	-3.4364538e-38
21	0x813b33ee	-3.4383733e-38
22	0xbdc9436f	-0.09827315
23	0xbd5a0f43	-0.05323721
24	0xbd2f5ec2	-0.042814977
25	0x81a4b3bf	-6.050201e-38
26	0xbd715903	-0.05892278
27	0x81167456	-2.7634116e-38
28	0x80414017	-5.992298e-39
29	0xbebbc32e	-0.36672348
30	0xbd225c50	-0.039638817
31	0xbda40a27	-0.08009749
32	0xbdf28126	-0.11841039
33	0x811a6673	-2.8358837e-38
34	0xbe200180	-0.15625572
35	0x80125ee3	-1.687078e-39
36	0x80ba08f2	-1.7084611e-38
37	0xbd24bbc0	-0.040218115
38	0xbd6ee985	-0.05832817
39	0x8106cd5c	-2.475925e-38
40	0x811c9812	-2.876178e-38
41	0x81010070	-2.3693872e-38
42	0xbbfeb693	-0.0077732294
43	0x811cc370	-2.8792894e-38
44	0x810a67bc	-2.5421023e-38
45	0x802f5e0c	-4.350006e-39
46	0xbdc30a8a	-0.095234945
47	0x812a2efd	-3.125778e-38
48	0x805e485c	-8.658494e-39
49	0x8085c322	-1.2284121e-38
50	0xbd8aa106	-0.06768994
51	0x813e6a18	-3.4973607e-38
52	0xbd87e6f8	-0.06635851
53	0x813399f4	-3.2987564e-38
54	0xbd6a4aed	-0.05720036
55	0xbd216dc5	-0.039411325
56	0x81575cc8	-3.955583e-38
57	0x805588ba	-7.855065e-39
58	0x8191db72	-5.3579476e-38
59	0x815017f6	-3.8220758e-38
60	0x80c9ded0	-1.8538865e-38
61	0x80f49eb7	-2.2464797e-38
62	0xbde5a172	-0.11212434
63	0x80bce45b	-1.7346992e-38
64	0xbdb73bd6	-0.0894696
65	0x3b597e2a	0.0033186772
66	0x81007fb0	-2.3601498e-38
67	0xbd8b6f59	-0.06808347
68	0x81060a11	-2.4619135e-38
69	0x8082bd98	-1.2006628e-38
70	0xbbe1b640	-0.006888181
71	0x80c79b86	-1.8331055e-38
72	0x3bfe1078	0.007753428
73	0x803af5e5	-5.414669e-39
74	0x810e8158	-2.617408e-38
75	0xbd6a3d26	-0.057187222
76	0xbdf5d142	-0.120028034
77	0x81412d84	-3.5481157e-38
78	0x814520f7	-3.6206837e-38
79	0x819e1ad7	-5.8078547e-38
80	0xbd3bddbe	-0.045865767
81	0x81b9dad8	-6.827229e-38
82	0xbce6bafe	-0.028165337
83	0x8106d121	-2.4761956e-38
84	0x8106f5c6	-2.4788247e-38
85	0xbc2d3850	-0.010572508
86	0x8120f52e	-2.9563267e-38
87	0x80170978	-2.115613e-39
88	0xbd7ce9ca	-0.061746396
89	0x8008e86d	-8.18063e-40
90	0x80c7259f	-1.828876e-38
91	0x80c91fcd	-1.8470343e-38
92	0xbdace218	-0.084415615
93	0x80dd6d18	-2.033478e-38
94	0xbdaf6e79	-0.08565993
95	0x807e26cf	-1.1585194e-38
96	0x804f325e	-7.273073e-39
97	0x810691bc	-2.4716472e-38
98	0xbd58c25c	-0.05291973
99	0x3bb5d556	0.0055491133
100	0x810155ae	-2.375503e-38
101	0x802c8d9b	-4.09156e-39
102	0xbc24f8be	-0.01006907
103	0x81062148	-2.463579e-38
104	0xbd7fc97d	-0.062448014
105	0x808be979	-1.2848888e-38
106	0xbcaa74db	-0.020807674
107	0x80b7fccc	-1.6896582e-38
108	0xbd5adcbe	-0.053433172
109	0x80f26418	-2.2260097e-38
110	0x3b0de449	0.002165096
111	0x80edb586	-2.1830131e-38
112	0x80308b81	-4.458148e-39
113	0xbdb8e6d2	-0.090284005
114	0xbd779f60	-0.060454726
115	0xbcd3142d	-0.025766456
116	0xbd035b24	-0.03206934
117	0xbe1cb709	-0.15304197
118	0xbca22b56	-0.019796055
119	0x810108fb	-2.37e-38
120	0xbdcda917	-0.10042017
121	0xbd5b402d	-0.053528
122	0xbd8d6523	-0.06904056
123	0x812366f0	-3.0012226e-38
124	0x81002fba	-2.354413e-38
125	0x8116a38a	-2.7667982e-38
126	0x804acb73	-6.86881e-39
127	0xbd37836e	-0.044803075
128	0xbd1504e9	-0.036381636
129	0xbcfb9061	-0.030708494
130	0x801e53cf	-2.78513e-39
131	0xbd9f0ecc	-0.07766494
132	0x3c53ee11	0.012935177
133	0x8162ade6	-4.163441e-38
134	0xbacf114c	-0.0015798002
135	0xbd09c563	-0.03363551
136	0x801b721a	-2.52049e-39
137	0x81b20300	-6.539118e-38
138	0xbcd8bfb2	-0.026458595
139	0x80848537	-1.2170074e-38
140	0xbd870bcd	-0.06594048
141	0xbc971d84	-0.018446691
142	0x80017efa	-1.37386e-40
143	0x80f33395	-2.233453e-38
144	0x80c46f7c	-1.803975e-38
145	0x80b39e93	-1.649544e-38
146	0x805b739a	-8.3985e-39
147	0x810217e6	-2.3894375e-38
148	0xbdf0ea5c	-0.117634505
149	0xbd8b3280	-0.067967415
150	0xbd0649c1	-0.03278518
151	0x80c6779a	-1.8226333e-38
152	0xbc98ff1a	-0.01867633
153	0x80d266db	-1.9322352e-38
154	0x80289626	-3.727283e-39
155	0x80c0984e	-1.7687052e-38
156	0xba9d68a9	-0.001200934
157	0x806560ef	-9.310158e-39
158	0x8116fb89	-2.7731116e-38
159	0x8097819f	-1.3913659e-38
160	0x81648058	-4.1969068e-38
161	0x8080db46	-1.1833604e-38
162	0x80ed80d3	-2.1811226e-38
163	0x812e4362	-3.2007097e-38
164	0x80bfcdf3	-1.761446e-38
165	0x80eced91	-2.17584e-38
166	0xbd912a26	-0.07088117
167	0x815010e9	-3.82157e-38
168	0xbc87880a	-0.01654436
169	0x803d3576	-5.621143e-39
170	0x800204b9	-1.85365e-40
171	0xbda74fc1	-0.08169509
172	0xbd0b2325	-0.033969063
173	0xbc27e339	-0.010247045
174	0x818cb898	-5.1692757e-38
175	0x3ca49781	0.020091774
176	0x814b7fd3	-3.737692e-38
177	0x814b0bb9	-3.7293622e-38
178	0x80acbb04	-1.5862794e-38
179	0x8048257f	-6.625607e-39
180	0x80124ff5	-1.681722e-39
181	0xbd94195c	-0.072313994
182	0xbda8a02e	-0.08233677
183	0xbd0c5ff7	-0.034271207
184	0x80beb1c9	-1.7512522e-38
185	0x80f13670	-2.2151883e-38
186	0xbdc30e01	-0.095241554
187	0x80bf2142	-1.755251e-38
188	0x816e5395	-4.3773663e-38
189	0x80eec735	-2.192831e-38
190	0x80714f6f	-1.0405906e-38
191	0xbca8c410	-0.020601302
192	0xbd67298d	-0.05643611
193	0x8154a640	-3.905753e-38
194	0xbd366150	-0.0445264
195	0x80536cea	-7.661417e-39
196	0xbd2c415d	-0.042054523
197	0x810a68a4	-2.5421673e-38
198	0x80fa269f	-2.2972729e-38
199	0x80ff311d	-2.343567e-38
200	0x81629fcc	-4.1624293e-38
201	0xbdb74797	-0.089492016
202	0xbc032078	-0.008003347
203	0xbdc3d6bb	-0.09562441
204	0x80ddf5fd	-2.0383889e-38
205	0x8196ec46	-5.5440333e-38
206	0x804d89bf	-7.120747e-39
207	0xbe0e9762	-0.13924935
208	0xbdd88422	-0.10572077
209	0xbd4719b9	-0.048608515
210	0xbc1bfa57	-0.009520135
211	0x811db895	-2.8968777e-38
212	0x81177258	-2.7816357e-38
213	0x80969e6c	-1.3832155e-38
214	0x804d7554	-7.113423e-39
215	0xbe0a05a4	-0.13478714
216	0x803af109	-5.412926e-39
217	0x80a36093	-1.500383e-38
218	0xbd833fd8	-0.064086616
219	0x81247390	-3.0204955e-38
220	0x80558f8b	-7.85751e-39
221	0xbe0d77d5	-0.13815244
222	0xbdac327b	-0.08408066
223	0xbd70e648	-0.058813363
224	0x81321355	-3.2707307e-38
225	0xbd5a145a	-0.053242065
226	0x8183fa15	-4.848065e-38
227	0x80e01f82	-2.0582454e-38
228	0x808cf98c	-1.294649e-38
229	0xbd8af871	-0.06785668
230	0x811d96ef	-2.8944635e-38
231	0x80375716	-5.082193e-39
232	0xbd33f1cf	-0.04393178
233	0xbd963ec5	-0.07336191
234	0xbcc117e0	-0.023570955
235	0x8184150c	-4.851934e-38
236	0x80fdf65c	-2.3322758e-38
237	0xbd695dd8	-0.056974262
238	0x3bb17f5b	0.0054167933
239	0xbe89d0e3	-0.2691718
240	0x80290284	-3.766158e-39
241	0xbd4e54af	-0.05037373
242	0xbd547497	-0.051869
243	0x811207a6	-2.6821452e-38
244	0x810b829e	-2.562398e-38
245	0xbd945cfa	-0.07244296
246	0xbd577ae2	-0.052607425
247	0xbdce3802	-0.100692764
248	0xbd32358c	-0.043508098
249	0xbd8077bf	-0.0627284
250	0x80fa692d	-2.2996604e-38
251	0x814f7d0b	-3.810961e-38
252	0x80d54f5c	-1.958943e-38
253	0x80dd9f14	-2.0352711e-38
254	0x81288256	-3.0950238e-38
255	0xbdbde639	-0.09272427

network.1.running_mean f4 [256]
0	0x8211678c	-1.0682634e-37
1	0x016fbbf2	4.403221e-38
2	0x0258123b	1.5874406e-37
3	0x3da6b98a	0.081408575
4	0x01c98da4	7.4038983e-38
5	0xbe4d1575	-0.20027716
6	0x016a1336	4.2992795e-38
7	0x0134c86e	3.320458e-38
8	0xbddbcc0e	-0.1073228
9	0xbe1a9c84	-0.15098768
10	0x013aa179	3.4278656e-38
11	0x01ab8d69	6.3018393e-38
12	0x019e6342	5.818246e-38
13	0x02622945	1.6615701e-37
14	0xbe309f07	-0.17248164
15	0xbe6a3d85	-0.2287503
16	0x81ceda86	-7.5986015e-38
17	0xbe7f0eee	-0.24908039
18	0x0233354c	1.3166139e-37
19	0x01a4b023	6.049683e-38
20	0x80ec7ee0	-2.1718691e-38
21	0x017dc9f6	4.661366e-38
22	0xbd4e6388	-0.05038789
23	0x3e2f7924	0.17136055
24	0x3c9111e5	0.017708728
25	0x0191fa43	5.3623696e-38
26	0xbda237f1	-0.07920826
27	0x80a02837	-1.4708106e-38
28	0x8079e55e	-1.1194376e-38
29	0xbcdf038f	-0.027223377
30	0x3d8f27f6	0.06990044
31	0x3e1a50c0	0.15069866
32	0x3c97289f	0.018451987
33	0x0211ef98	1.0721678e-37
34	0x3db955c6	0.09049563
35	0x816976a4	-4.2880462e-38
36	0x021262d2	1.0754746e-37
37	0xbba6fbba	-0.005095926
38	0x3d868105	0.06567577
39	0x8276ef0e	-1.8141831e-37
40	0x01b8b380	6.7848495e-38
41	0x812a901d	-3.1327465e-38
42	0xbdab4332	-0.08362426
43	0x00b3d710	1.6515704e-38
44	0x8002e129	-2.64443e-40
45	0x00b3d3e0	1.651456e-38
46	0xbdd8df02	-0.1058941
47	0x028ccba9	2.0688046e-37
48	0x014fd124	3.8169946e-38
49	0x82509a1c	-1.5325654e-37
50	0xbe431d56	-0.1905416
51	0x810e9242	-2.6186216e-38
52	0xbc95b808	-0.01827623
53	0x8268833e	-1.7082333e-37
54	0xbe1eddca	-0.15514293
55	0xbd17b174	-0.037034467
56	0x81cb5aa1	-7.470047e-38
57	0x8009f173	-9.13135e-40
58	0x8114f85a	-2.736149e-38
59	0x81bdd03e	-6.972645e-38
60	0x8015a12e	-1.986366e-39
61	0x0050fc5c	7.437369e-39
62	0xbdb6381c	-0.08897421
63	0x0145e864	3.6349918e-38
64	0xbdd95f42	-0.10613872
65	0xbe727354	-0.23676807
66	0x81dc84d1	-8.100582e-38
67	0xbd9c3a66	-0.07628326
68	0x01b11752	6.5052994e-38
69	0x01739cc2	4.474452e-38
70	0xbe5786dc	-0.21047539
71	0x00d39152	1.9429421e-38
72	0xbe564da6	-0.20928058
73	0x025087df	1.532042e-37
74	0x016d91dc	4.3634674e-38
75	0x3e0ec80d	0.13943501
76	0xbcafb31c	-0.02144771
77	0x82caeae7	-2.981606e-37
78	0x81923b4d	-5.371702e-38
79	0x81f807df	-9.1112107e-38
80	0xbe3a7c22	-0.18211415
81	0x8188559d	-5.008136e-38
82	0xbe0e2c15	-0.13884003
83	0x80b9bb43	-1.7056744e-38
84	0x801fa7a0	-2.907033e-39
85	0xbc9e6c1e	-0.019338664
86	0x81d4880c	-7.807172e-38
87	0x0076111c	1.0842726e-38
88	0xbe0f2f18	-0.13982809
89	0x810b9697	-2.563831e-38
90	0x8115caa5	-2.7512368e-38
91	0x820608f6	-9.847337e-38
92	0x3dd136f5	0.1021556
93	0x013779a4	3.3699064e-38
94	0xbe03e5cc	-0.1288063
95	0x806944ea	-9.667449e-39
96	0x01e97cf8	8.5770004e-38
97	0x0215cedb	1.1006156e-37
98	0xbd115639	-0.03548262
99	0xbde8fb68	-0.11376077
100	0x0165ea34	4.222869e-38
101	0x003a9ee2	5.383455e-39
102	0xbe09c079	-0.13452329
103	0x0118b032	2.8044405e-38
104	0x3d9d8b2c	0.076925606
105	0x0050a50e	7.40605e-39
106	0xba8253c0	-0.0009943172
107	0x01b3cdf6	6.6049755e-38
108	0x3e28fd78	0.1650294
109	0x01ce9e0d	7.589924e-38
110	0xbe09b411	-0.13447596
111	0x00585c30	8.114594e-39
112	0x81d818f0	-7.938165e-38
113	0xbd5a994e	-0.05336886
114	0x3d0ac8b8	0.033882827
115	0xbe1f0b84	-0.15531737
116	0xbc23ea4f	-0.010004594
117	0xbdbf51a5	-0.09341744
118	0x3db202dd	0.086919524
119	0x82224f38	-1.1924615e-37
120	0x3e1d6a76	0.15372643
121	0xbc8df340	-0.017327905
122	0x3d380b76	0.044932805
123	0x01958b6b	5.493401e-38
124	0x02181c32	1.1175288e-37
125	0x822ce9c8	-1.2703656e-37
126	0x0043aae2	6.21428e-39
127	0xbd8433c1	-0.06455184
128	0x3e3f5210	0.18683648
129	0x3d224590	0.03961712
130	0x023fe2b8	1.4097529e-37
131	0x3e937dc3	0.28806886
132	0xbb25ddb4	-0.0025309147
133	0x02a495bd	2.418358e-37
134	0xbc26236c	-0.010140281
135	0xbd565788	-0.05232957
136	0x01f5a657	9.023747e-38
137	0x02384108	1.3536848e-37
138	0xbd42942c	-0.04750459
139	0x817e1889	-4.6670035e-38
140	0xbd99ded0	-0.07513201
141	0xbe30f741	-0.1728182
142	0x01984ab0	5.5943153e-38
143	0x8223cee0	-1.2034719e-37
144	0x013aadd2	3.4287515e-38
145	0x8285c708	-1.9656832e-37
146	0x81eaa1a2	-8.6189956e-38
147	0x01b39f0b	6.598243e-38
148	0xbda4ace9	-0.080407925
149	0xbc36f3fa	-0.011166567
150	0xbe27a319	-0.1637081
151	0x005cde0d	8.528522e-39
152	0xbe24cbe4	-0.16093403
153	0x812a79ff	-3.1311597e-38
154	0x81933762	-5.407874e-38
155	0x82861ab5	-1.970486e-37
156	0xbe469c7c	-0.19395632
157	0x81a63b79	-6.106411e-38
158	0x0199b021	5.6456056e-38
159	0x00210d38	3.035313e-39
160	0x818853a8	-5.007855e-38
161	0x8236da4f	-1.34339e-37
162	0x0225a444	1.2169427e-37
163	0x8195cb68	-5.502583e-38
164	0x01b32c0c	6.581742e-38
165	0x81984c6a	-5.594563e-38
166	0x3db69bc7	0.08916431
167	0x01baa3a2	6.856041e-38
168	0xbdb45af6	-0.08806412
169	0x80925de2	-1.3441661e-38
170	0x81547c87	-3.9027594e-38
171	0x3e6bd74a	0.23031345
172	0xbcf7ef52	-0.030265484
173	0xbe146f3e	-0.1449556
174	0x01085255	2.5038325e-38
175	0xbe182fe8	-0.14862025
176	0x801233fd	-1.671689e-39
177	0x8279fcc8	-1.8366175e-37
178	0x81b0150a	-6.468238e-38
179	0x0246adf2	1.4596662e-37
180	0x827ad538	-1.842829e-37
181	0xbc89f5a0	-0.016840756
182	0x3d98d03a	0.07461591
183	0xbd2fd3dc	-0.042926654
184	0x0119e2fc	2.8264515e-38
185	0x0225caf1	1.2180527e-37
186	0x3a028300	0.0004978627
187	0x026f9655	1.760209e-37
188	0x02040ba1	9.701166e-38
189	0x821a8632	-1.1352645e-37
190	0x81fcc676	-9.285496e-38
191	0xbd384cfd	-0.044995297
192	0x3c884d8d	0.016638542
193	0x024f79b8	1.524289e-37
194	0x3e90d5e5	0.2828819
195	0x0292e400	2.1583637e-37
196	0xbd709304	-0.058733955
197	0x008e9464	1.3093873e-38
198	0x000ae5ba	1.000765e-39
199	0x0263dce6	1.6740721e-37
200	0x821243e6	-1.0745872e-37
201	0xbe253842	-0.16134742
202	0xbdc84159	-0.09778089
203	0xbdee9c40	-0.11650896
204	0x8219609b	-1.1268389e-37
205	0x8286d323	-1.9810717e-37
206	0x80addc1e	-1.5966504e-38
207	0x3e430f9a	0.1904892
208	0x3e2cdd6d	0.16881342
209	0xbda17b0d	-0.07884798
210	0xbd933296	-0.07187383
211	0x01900a88	5.291236e-38
212	0x8029abc7	-3.826877e-39
213	0x81719630	-4.4372463e-38
214	0x82b3f736	-2.6443578e-37
215	0xbe2e053e	-0.16994187
216	0x010a73b4	2.542961e-38
217	0x0264664f	1.6780156e-37
218	0x3defed7c	0.117152184
219	0x81ddac7a	-8.143007e-38
220	0x8197cf44	-5.576605e-38
221	0xbe2d3ddc	-0.16918129
222	0x3d7ad01e	0.061233632
223	0xbdc03c64	-0.093865186
224	0x809fd5a5	-1.4678485e-38
225	0x3e20d3c8	0.15705788
226	0x0204b0a0	9.748517e-38
227	0x0182781e	4.792682e-38
228	0x824bfe19	-1.4987007e-37
229	0xbc8bd0aa	-0.017067272
230	0x021f4f4e	1.1704234e-37
231	0x809bb072	-1.4297799e-38
232	0xbdafd03c	-0.085846394
233	0xbde68c08	-0.112571776
234	0x3d0f1fda	0.034942485
235	0x8226ea6a	-1.2263027e-37
236	0x809ce1bc	-1.4407316e-38
237	0xbda88d6e	-0.082301006
238	0x3d51c073	0.051208925
239	0xbd12b193	-0.03581388
240	0x80ac47d4	-1.5821472e-38
241	0x3e708226	0.23487148
242	0x3e2d5ddd	0.16930337
243	0x016e5a10	4.3778313e-38
244	0x820fe26e	-1.0570963e-37
245	0x3cb6b735	0.022304157
246	0x3e26cc96	0.16288981
247	0x3e458920	0.1929059
248	0x3da709dd	0.08156178
249	0xbe1bb6fd	-0.15206523
250	0x821d21ea	-1.1544271e-37
251	0x0103ed18	2.4231006e-38
252	0x82233d3a	-1.199292e-37
253	0x80bff645	-1.7628925e-38
254	0x827d9107	-1.8629125e-37
255	0x3e65246e	0.22377178

network.1.running_var f4 [256]
0	0x00000004	6e-45
1	0x00000004	6e-45
2	0x00000004	6e-45
3	0x400c9c2c	2.197032
4	0x00000004	6e-45
5	0x407f7afd	3.9918816
6	0x00000004	6e-45
7	0x00000004	6e-45
8	0x40ac7631	5.3894277
9	0x4105155f	8.317718
10	0x00000004	6e-45
11	0x00000004	6e-45
12	0x00000004	6e-45
13	0x00000004	6e-45
14	0x40e343c1	7.1020207
15	0x405e7421	3.475838
16	0x00000004	6e-45
17	0x407abb5b	3.9176853
18	0x00000004	6e-45
19	0x00000004	6e-45
20	0x00000004	6e-45
21	0x00000004	6e-45
22	0x3fe74c41	1.8070146
23	0x4055d512	3.3411298
24	0x3fae76e6	1.3630035
25	0x00000004	6e-45
26	0x3fc12837	1.5090398
27	0x00000004	6e-45
28	0x00000004	6e-45
29	0x41353a39	11.3267145
30	0x404e7aaf	3.226238
31	0x404532ca	3.081225
32	0x404aca5a	3.1686006
33	0x00000004	6e-45
34	0x40248ffa	2.5712876
35	0x00000004	6e-45
36	0x00000004	6e-45
37	0x3fd1773a	1.636451
38	0x4080a0e6	4.019641
39	0x00000004	6e-45
40	0x00000004	6e-45
41	0x00000004	6e-45
42	0x401eec5d	2.4831765
43	0x00000004	6e-45
44	0x00000004	6e-45
45	0x00000004	6e-45
46	0x4078cba4	3.8874292
47	0x00000004	6e-45
48	0x00000004	6e-45
49	0x00000004	6e-45
50	0x3ff0d162	1.8813899
51	0x00000004	6e-45
52	0x407cbead	3.949138
53	0x00000004	6e-45
54	0x40240033	2.5625122
55	0x3f9b3442	1.2125323
56	0x00000004	6e-45
57	0x00000004	6e-45
58	0x00000004	6e-45
59	0x00000004	6e-45
60	0x00000004	6e-45
61	0x00000004	6e-45
62	0x4006f601	2.108765
63	0x00000004	6e-45
64	0x40f236f0	7.569206
65	0x40951d74	4.6598454
66	0x00000004	6e-45
67	0x402b537e	2.676971
68	0x00000004	6e-45
69	0x00000004	6e-45
70	0x40ca6a44	6.325472
71	0x00000004	6e-45
72	0x4089c23d	4.3049607
73	0x00000004	6e-45
74	0x00000004	6e-45
75	0x40424c83	3.03592
76	0x400da971	2.213467
77	0x00000004	6e-45
78	0x00000004	6e-45
79	0x00000004	6e-45
80	0x41039e86	8.226202
81	0x00000004	6e-45
82	0x40286477	2.631132
83	0x00000004	6e-45
84	0x00000004	6e-45
85	0x40616d7f	3.522308
86	0x00000004	6e-45
87	0x00000004	6e-45
88	0x40113d85	2.2693799
89	0x00000004	6e-45
90	0x00000004	6e-45
91	0x00000004	6e-45
92	0x402a3158	2.6592617
93	0x00000004	6e-45
94	0x4111872e	9.095503
95	0x00000004	6e-45
96	0x00000004	6e-45
97	0x00000004	6e-45
98	0x3fc53786	1.540757
99	0x40eaa97a	7.333188
100	0x00000004	6e-45
101	0x00000004	6e-45
102	0x4066a4b3	3.6038024
103	0x00000004	6e-45
104	0x3fb8fec2	1.4452746
105	0x00000004	6e-45
106	0x3fb3ec06	1.4056404
107	0x00000004	6e-45
108	0x40a7ecf1	5.2476735
109	0x00000004	6e-45
110	0x4116222d	9.383344
111	0x00000004	6e-45
112	0x00000004	6e-45
113	0x40142267	2.3145998
114	0x4020151c	2.5012884
115	0x4021710d	2.522525
116	0x3fdb153a	1.7115853
117	0x4096fd38	4.7184105
118	0x4080bcb8	4.023037
119	0x00000004	6e-45
120	0x40f672c7	7.701511
121	0x40a3b4ef	5.1158366
122	0x40887c57	4.265178
123	0x00000004	6e-45
124	0x00000004	6e-45
125	0x00000004	6e-45
126	0x00000004	6e-45
127	0x400bfece	2.187427
128	0x3ffbe960	1.9680595
129	0x40bb5577	5.8541827
130	0x00000004	6e-45
131	0x40f8a62f	7.770286
132	0x3fa83126	1.3139999
133	0x00000004	6e-45
134	0x40cc8532	6.391259
135	0x40add5bc	5.4323406
136	0x00000004	6e-45
137	0x00000004	6e-45
138	0x407f804e	3.992206
139	0x00000004	6e-45
140	0x40a0d482	5.025941
141	0x40d59174	6.6740055
142	0x00000004	6e-45
143	0x00000004	6e-45
144	0x00000004	6e-45
145	0x00000004	6e-45
146	0x00000004	6e-45
147	0x00000004	6e-45
148	0x40295939	2.6460707
149	0x3fad9b5e	1.3563039
150	0x4032b85a	2.792502
151	0x00000004	6e-45
152	0x40e82ebc	7.255705
153	0x00000004	6e-45
154	0x00000004	6e-45
155	0x00000004	6e-45
156	0x40e51425	7.158709
157	0x00000004	6e-45
158	0x00000004	6e-45
159	0x00000004	6e-45
160	0x00000004	6e-45
161	0x00000004	6e-45
162	0x00000004	6e-45
163	0x00000004	6e-45
164	0x00000004	6e-45
165	0x00000004	6e-45
166	0x3fe81b1a	1.8133271
167	0x00000004	6e-45
168	0x40ba371f	5.8192286
169	0x00000004	6e-45
170	0x00000004	6e-45
171	0x4090eb7b	4.528745
172	0x40150983	2.3287055
173	0x40ff62a6	7.980792
174	0x00000004	6e-45
175	0x40d01f2b	6.5038047
176	0x00000004	6e-45
177	0x00000004	6e-45
178	0x00000004	6e-45
179	0x00000004	6e-45
180	0x00000004	6e-45
181	0x3fd74a80	1.681961
182	0x40bf0556	5.9694014
183	0x401e0fe7	2.4697206
184	0x00000004	6e-45
185	0x00000004	6e-45
186	0x4058f5f0	3.3900108
187	0x00000004	6e-45
188	0x00000004	6e-45
189	0x00000004	6e-45
190	0x00000004	6e-45
191	0x3fa50fcd	1.2895447
192	0x3ff69269	1.9263431
193	0x00000004	6e-45
194	0x41256fb6	10.339773
195	0x00000004	6e-45
196	0x3f8664c3	1.04995
197	0x00000004	6e-45
198	0x00000004	6e-45
199	0x00000004	6e-45
200	0x00000004	6e-45
201	0x406edbe9	3.7321723
202	0x403167cb	2.77196
203	0x4012bbf3	2.2927215
204	0x00000004	6e-45
205	0x00000004	6e-45
206	0x00000004	6e-45
207	0x40da0f17	6.814342
208	0x40d8f7d0	6.7802505
209	0x40369e4e	2.8534122
210	0x405d5982	3.4585881
211	0x00000004	6e-45
212	0x00000004	6e-45
213	0x00000004	6e-45
214	0x00000004	6e-45
215	0x4068479b	3.6293705
216	0x00000004	6e-45
217	0x00000004	6e-45
218	0x3ff36ba7	1.9017228
219	0x00000004	6e-45
220	0x00000004	6e-45
221	0x40e6d5f2	7.2136164
222	0x3f9df29d	1.2339665
223	0x3fd2d46a	1.6471074
224	0x00000004	6e-45
225	0x400e5128	2.2237034
226	0x00000004	6e-45
227	0x00000004	6e-45
228	0x00000004	6e-45
229	0x408890c5	4.267672
230	0x00000004	6e-45
231	0x00000004	6e-45
232	0x4081cd8d	4.0563416
233	0x3fb9d4bc	1.4518046
234	0x3fc0ed82	1.5072482
235	0x00000004	6e-45
236	0x00000004	6e-45
237	0x4052f16c	3.2959852
238	0x4025f484	2.593049
239	0x40fe0412	7.937997
240	0x00000004	6e-45
241	0x413a3716	11.638449
242	0x40aa4a6c	5.3215847
243	0x00000004	6e-45
244	0x00000004	6e-45
245	0x4011d294	2.2784777
246	0x401a3d08	2.409975
247	0x40d2800e	6.5781317
248	0x40f48702	7.6414804
249	0x404c3ba9	3.1911414
250	0x00000004	6e-45
251	0x00000004	6e-45
252	0x00000004	6e-45
253	0x00000004	6e-45
254	0x00000004	6e-45
255	0x408344f1	4.1021657

network.4.weight f4 [128, 256]
0	0x819e8cae	-5.82419e-38
1	0x0046641c	6.464397e-39
2	0x01979f7e	5.56975e-38
3	0xbd610571	-0.05493683
4	0x80c42a0f	-1.8014845e-38
5	0xbcc69989	-0.024243133
6	0x8178ce04	-4.5698215e-38
7	0x007a6b36	1.124239e-38
8	0xbd37f251	-0.044908825
9	0x3d25baa1	0.040461186
10	0x80d70384	-1.9745893e-38
11	0x0036d752	5.036359e-39
12	0x81985960	-5.596423e-38
13	0x01a47e3d	6.042523e-38
14	0x3d86bc24	0.06578854
15	0x3cc8360d	0.024439836
16	0x0189a35f	5.056028e-38
17	0xbc609272	-0.01370679
18	0x01823c08	4.78406e-38
19	0x018ffdf7	5.2894325e-38
20	0x817366ca	-4.47058e-38
21	0x018a3e9a	5.078302e-38
22	0xbd12db6f	-0.0358538
23	0x3c604ed8	0.013690673
24	0x3d184e71	0.037184183
25	0x01b0bccc	6.49231e-38
26	0xbd33ca62	-0.04389418
27	0x819d4955	-5.777792e-38
28	0x01767c04	4.527204e-38
29	0xbd0a4767	-0.0337595
30	0xbd1587df	-0.03650653
31	0x3aa72d96	0.0012754675
32	0x3d0e5fda	0.03475938
33	0x80343eec	-4.798018e-39
34	0xbbd0eac7	-0.006375644
35	0x817c0756	-4.6290353e-38
36	0x00fcaf32	2.3205393e-38
37	0xbc577f21	-0.0131528685
38	0xbd7ddd0e	-0.061978392
39	0x0027e538	3.663813e-39
40	0x81154a00	-2.742007e-38
41	0x00a8cdee	1.5502237e-38
42	0x3c021ed8	0.007941924
43	0x01817853	4.7559773e-38
44	0x80d7e4c4	-1.9826697e-38
45	0x806e915a	-1.0154047e-38
46	0xbd05078e	-0.032477908
47	0x01893a46	5.040947e-38
48	0x00c6c756	1.8254936e-38
49	0x818082d4	-4.7207503e-38
50	0x3c6e8b2a	0.0145595465
51	0x006299d8	9.055067e-39
52	0xbbd897a1	-0.0066098724
53	0x812ef16e	-3.213197e-38
54	0x3d72bbfd	0.05926131
55	0x3b92e76d	0.0044831545
56	0x80bb0534	-1.7175104e-38
57	0x801ff898	-2.936079e-39
58	0x801c41b4	-2.594964e-39
59	0x015cf3ec	4.0582624e-38
60	0x8020a308	-2.99722e-39
61	0x80df5fc1	-2.0513666e-38
62	0xbc989d85	-0.018629799
63	0x81b75185	-6.734056e-38
64	0x3cb9b535	0.022669414
65	0xbc62c87f	-0.013841747
66	0x81b1f0d0	-6.536508e-38
67	0x3d164097	0.03668269
68	0x00d8e20a	1.9917555e-38
69	0x8054f460	-7.801847e-39
70	0xbca96622	-0.020678584
71	0x81374d2d	-3.3667163e-38
72	0xbc421555	-0.011845906
73	0x809d8af8	-1.4468025e-38
74	0x01071f2c	2.481795e-38
75	0xbd426ae1	-0.04746521
76	0x3c46ee7a	0.012141818
77	0x819a7d0a	-5.675009e-38
78	0x80147eac	-1.882151e-39
79	0x00b816fe	1.690598e-38
80	0x3d26d483	0.04073001
81	0x00d2a042	1.9342944e-38
82	0xbca0373e	-0.019557592
83	0x81b82968	-6.765034e-38
84	0x01086711	2.5053201e-38
85	0xbca8eae2	-0.020619813
86	0x00f5e972	2.2583441e-38
87	0x01839a20	4.834296e-38
88	0xbc819e0f	-0.015822439
89	0x8048da34	-6.690432e-39
90	0x809ae8d4	-1.422619e-38
91	0x80d33b1a	-1.9398491e-38
92	0x3c4f080d	0.012636197
93	0x00feecea	2.3411205e-38
94	0x3d5734f6	0.05254074
95	0x01ad18f7	6.3585986e-38
96	0x801ae2a2	-2.469023e-39
97	0x010823d4	2.500496e-38
98	0x3c8f4a41	0.017491462
99	0x3d4f31e4	0.05058469
100	0x006fe1fc	1.0274808e-38
101	0x01b7a678	6.7462454e-38
102	0xbbc2e115	-0.005947242
103	0x818e11a2	-5.2187864e-38
104	0x3c24994b	0.0100463135
105	0x8102fd6a	-2.4059045e-38
106	0x3cc3a87a	0.023884047
107	0x0191484a	5.336832e-38
108	0xbe022735	-0.12710269
109	0x815f0448	-4.0961703e-38
110	0x3c9c2490	0.019060403
111	0x8142028e	-3.5634005e-38
112	0x01904a5c	5.3003946e-38
113	0x3ca3b9ce	0.01998606
114	0xbc2ee519	-0.010674738
115	0xbc2f997c	-0.010717746
116	0xbbdb41a3	-0.006691174
117	0xbc8d5f91	-0.017257484
118	0xbcaf8ae8	-0.02142854
119	0x00b7a738	1.6865883e-38
120	0xbd5c1beb	-0.053737562
121	0xbd45044b	-0.048099797
122	0xbbf417cb	-0.0074491254
123	0x8000c950	-7.2217e-41
124	0x81816152	-4.7526764e-38
125	0x012edac8	3.211572e-38
126	0x815742d5	-3.9537213e-38
127	0x3c5e9cdf	0.013587206
128	0xbb66dd96	-0.003522729
129	0x3d36af74	0.04460092
130	0x817a04b7	-4.592113e-38
131	0xbde56c57	-0.11202305
132	0x3cc60f98	0.024177358
133	0x012bdb4c	3.1565077e-38
134	0xbcbd594e	-0.023113873
135	0x3c92830a	0.01788475
136	0x010f90c8	2.6368827e-38
137	0x0017278a	2.1264e-39
138	0xbc9ad04b	-0.01889815
139	0x010b5fde	2.559905e-38
140	0x3cb17a4f	0.021664767
141	0xb990839d	-0.0002756388
142	0x80b2a7d7	-1.6406928e-38
143	0x019b3b64	5.702323e-38
144	0x00f41830	2.2416538e-38
145	0x01576456	3.956125e-38
146	0x017dc5a2	4.6610556e-38
147	0x013eee20	3.5068335e-38
148	0x3d267caa	0.040646233
149	0xbbf07c49	-0.0073390347
150	0x3ca5fa5e	0.020260986
151	0x8088ab4c	-1.2551077e-38
152	0x3d393895	0.045219976
153	0x01813cab	4.747417e-38
154	0x80862b8a	-1.2321575e-38
155	0x8185e376	-4.9182874e-38
156	0x3ca433fb	0.020044317
157	0x0075c03c	1.0813714e-38
158	0x0105d6d9	2.4582388e-38
159	0x0151da06	3.8543662e-38
160	0x809941f3	-1.4074489e-38
161	0x00d5f83e	1.9650013e-38
162	0x00835b30	1.2063162e-38
163	0x009e1422	1.451723e-38
164	0x018e1be4	5.2202583e-38
165	0x0030c6a8	4.479368e-39
166	0xbc172b83	-0.009226683
167	0x01a9c368	6.236119e-38
168	0x3ce3b406	0.027795803
169	0x817c2d40	-4.6317555e-38
170	0x012986ac	3.113702e-38
171	0x3c582133	0.013191509
172	0xbce1d28c	-0.027566217
173	0x3c4f3eeb	0.012649278
174	0x81189d98	-2.803106e-38
175	0xbc72e05b	-0.014823998
176	0x0198272b	5.5892185e-38
177	0x803dfa7a	-5.69182e-39
178	0x808e924e	-1.3093125e-38
179	0x019e0e18	5.8060257e-38
180	0x0145ca50	3.6328338e-38
181	0xbd10d460	-0.035358787
182	0xbde6a518	-0.11261958
183	0xbc8b6a6e	-0.017018523
184	0x81215d24	-2.9637855e-38
185	0x8055fd22	-7.896824e-39
186	0x3c935cbb	0.017988553
187	0x000dce26	1.267814e-39
188	0x8186ce66	-4.9519993e-38
189	0x019697e4	5.531925e-38
190	0x004db6a8	7.136858e-39
191	0x3cdd7b7d	0.027036423
192	0xbd4bcc0b	-0.049755137
193	0x813dac9c	-3.483766e-38
194	0xbdf9f3b3	-0.12204685
195	0x0184a65c	4.8727856e-38
196	0x3cdf3c19	0.027250336
197	0x818fecdf	-5.2869797e-38
198	0x813fb2cd	-3.5209443e-38
199	0x01a6c29e	6.125803e-38
200	0x8185b62e	-4.91179e-38
201	0x3d312767	0.043250468
202	0x3cc6190d	0.024181867
203	0x3cb82d37	0.022482498
204	0x007d95d5	1.1533187e-38
205	0x0125c35a	3.0445872e-38
206	0x81adb8c6	-6.38153e-38
207	0xbacf15f8	-0.0015799394
208	0x3c1eedff	0.009700297
209	0x3c0a2047	0.008430547
210	0xbca53cc8	-0.020170584
211	0x000ef190	1.372353e-39
212	0x815538c6	-3.9162654e-38
213	0x019b9fb6	5.716718e-38
214	0x017a98c1	4.6027344e-38
215	0xbb87973c	-0.0041379016
216	0x8121ab8a	-2.9694103e-38
217	0x806f4608	-1.0218863e-38
218	0x3cfd6aea	0.03093477
219	0x001a14f2	2.395237e-39
220	0x81479452	-3.6656942e-38
221	0x3d095d97	0.03353652
222	0xbcf106db	-0.029422214
223	0xbd22f331	-0.039782707
224	0x017276c1	4.4533582e-38
225	0xbb352550	-0.0027640648
226	0x0101e030	2.3854405e-38
227	0x009c0e82	1.4331542e-38
228	0x013e7b53	3.498597e-38
229	0xbd329a01	-0.0436039
230	0x818f7ff0	-5.2713485e-38
231	0x81bcb1bc	-6.931533e-38
232	0x3bcbeef7	0.006223555
233	0x3d83144f	0.06400358
234	0x3b9c16e5	0.0047634714
235	0x016f540e	4.3957673e-38
236	0x805e4b7c	-8.659615e-39
237	0x3c53a862	0.012918564
238	0xbd4f6475	-0.050632913
239	0x3d2667ef	0.040626463
240	0x819d6dad	-5.783007e-38
241	0xbdd9db4b	-0.1063753
242	0xbddee393	-0.1088325
243	0x8140ffe0	-3.5448412e-38
244	0x8103c0fa	-2.4199354e-38
245	0x3d29cd1c	0.041455373
246	0x3c8b0c62	0.016973678
247	0xbdcb01ff	-0.0991249
248	0xbdcffb1f	-0.101553194
249	0xbc1fc8c0	-0.009752452
250	0x8043717c	-6.193689e-39
251	0x814f05a3	-3.802394e-38
252	0x0188c819	5.0245636e-38
253	0x00db6432	2.0147917e-38
254	0x81981d72	-5.5878234e-38
255	0xbce8fdb8	-0.028441295
