guitar_text/models/knob_regressor_net.pth (torch, 709917 bytes, 20 tensors)

network.0.weight f4 [256, 512]
0	0xbddf0b7a	-0.10890861
1	0xbbf8ea36	-0.0075962795
2	0x3d07e648	0.033178598
3	0xbce07b69	-0.027402597
4	0xbcde4be2	-0.027135793
5	0xbd85c5fc	-0.06531903
6	0x3d769097	0.060196485
7	0xbd0574e1	-0.032582168
8	0xbcb29514	-0.021799602
9	0xbd35da19	-0.044397447
10	0xbd2eb4c6	-0.042652868
11	0xbddd12f1	-0.107946284
12	0x3d706969	0.058694277
13	0xbd04fd57	-0.032468166
14	0x3d8dfd05	0.06933025
15	0x3c0c300f	0.00855638
16	0x3ac6d141	0.0015168564
17	0xbcf2950e	-0.02961209
18	0xbd8b3ce8	-0.06798726
19	0xbb26c78c	-0.002544853
20	0xbba2269f	-0.0049484516
21	0x3cd7af5d	0.026328737
22	0xbd021ad9	-0.031763885
23	0xbc90426d	-0.0176098
24	0xbcc326be	-0.023822185
25	0x3ba114ac	0.0049157944
26	0x3c942970	0.018086165
27	0xbc98f709	-0.018672483
28	0x3d051e60	0.03249967
29	0xbcce057e	-0.025149103
30	0x3b2a9f62	0.002603494
31	0xbbf6b5e5	-0.0075290077
32	0x3c9233c3	0.017846948
33	0x3c03fc90	0.008055821
34	0xbd1c7f82	-0.03820754
35	0x3cf9f054	0.030510105
36	0x3ced8421	0.028993668
37	0xbcd180e0	-0.025574148
38	0xbb4aafff	-0.0030927656
39	0x3d79d283	0.060991775
40	0x3caa37f2	0.02077863
41	0x3d501689	0.05080274
42	0xbc9b10a6	-0.018928837
43	0x3d413fbb	0.04717992
44	0x3c76c953	0.015062648
45	0x3da40ada	0.08009882
46	0x3d1fca7e	0.03901147
47	0xbc162909	-0.009165057
48	0xbc9dee7d	-0.01927876
49	0x3dbb6974	0.09150973
50	0x3ca3b53e	0.019983884
51	0x3c55254f	0.013009383
52	0xbc914420	-0.01773268
53	0xbd2cacb9	-0.04215691
54	0x3cedddde	0.029036459
55	0xbd1f0d5c	-0.0388311
56	0xbbb44ebc	-0.00550255
57	0xbd337b7a	-0.04381893
58	0x3c1c93e8	0.009556748
59	0xbc4bf2e0	-0.012448043
60	0xbb3ffb9d	-0.002929426
61	0xbc19578c	-0.009359252
62	0xbc33541f	-0.010945349
63	0xbcf87242	-0.03032792
64	0x3c89d2c6	0.016824137
65	0x3c545278	0.012959115
66	0x3c87b520	0.01656586
67	0x3d87a11b	0.06622525
68	0x3cecf3d2	0.028924856
69	0xbde2a91b	-0.110674106
70	0x3c45462d	0.012040657
71	0x3cdf173b	0.027232757
72	0xbd517171	-0.051133577
73	0xbc95e577	-0.018297894
74	0x3c9eeea5	0.019400904
75	0xbc95f98b	-0.018307468
76	0xbcb53b91	-0.02212313
77	0x3c00ca6e	0.007860763
78	0xbd2a49f0	-0.04157442
79	0xbb549aa2	-0.00324408
80	0x3cbc45e6	0.022982549
81	0x3ce2f8c4	0.027706511
82	0xbd71fefc	-0.059081063
83	0x3d94307f	0.072358124
84	0x3c728288	0.014801629
85	0xbd6870f1	-0.056748334
86	0xbd8a17ea	-0.067428425
87	0xbd2cb78d	-0.042167235
88	0x3c8dfa34	0.01733122
89	0x3bab7ece	0.005233622
90	0x3d319947	0.043359067
91	0x3da99387	0.08280092
92	0x3cc88419	0.024477052
93	0x3bc20020	0.005920425
94	0xbc0a21c1	-0.008430899
95	0xbc8634ef	-0.016382663
96	0x3d78d123	0.060746323
97	0xbcd17641	-0.025569083
98	0xbaa4a126	-0.0012560233
99	0x3ce038ab	0.027370771
100	0x3d1d43cc	0.038394734
101	0xbcc94534	-0.024569131
102	0x3d408e5b	0.04701076
103	0xbc31cb64	-0.010851715
104	0x3d01efbf	0.03172278
105	0x3b29b44b	0.0025894816
106	0xbd7a8735	-0.0611641
107	0x3cdb3eb4	0.026763298
108	0x3c9b0aee	0.01892611
109	0xbc0172cc	-0.007900905
110	0xbd66ff3b	-0.05639575
111	0xbcb241da	-0.021759916
112	0xbbdf2fb9	-0.006811109
113	0xbda74307	-0.08167081
114	0xbddd9f23	-0.108213685
115	0x3d51ec0f	0.051250514
116	0x3ca9ba53	0.02071873
117	0xbd27f9e4	-0.0410098
118	0xbc1e24b1	-0.009652303
119	0x3d121406	0.035663627
120	0x3df5e42c	0.12006411
121	0xbd422022	-0.047393925
122	0xb783c91b	-1.5710064e-05
123	0x3cf8f3d8	0.030389711
124	0x3d009aca	0.03139762
125	0xb8a0783b	-7.651789e-05
126	0xbbdec262	-0.0067980746
127	0x3d137eb6	0.036009513
128	0x3c9f10a0	0.019417107
129	0x3bfc5079	0.007700023
130	0xbbdf11f2	-0.006807559
131	0xbcf2998e	-0.029614236
132	0xbbcdaa2c	-0.0062763896
133	0x3cd47f19	0.025939511
134	0x3ce54a35	0.027989486
135	0xbd0d21a1	-0.0344559
136	0x3c2103b7	0.009827546
137	0xbc5a022e	-0.013306184
138	0x3c9b6056	0.018966835
139	0xbce9f0d4	-0.028557219
140	0xbdac511f	-0.0841391
141	0xbdece29f	-0.11566662
142	0xbc695733	-0.014241981
143	0x3d52db4a	0.05147866
144	0x3ceca89d	0.028888995
145	0xbc5ebe4f	-0.013595178
146	0x3d2f2930	0.04276389
147	0x3d6ff5ec	0.05858414
148	0xbb8cba61	-0.004294679
149	0xbcb83f99	-0.022491263
150	0xbc8e51e7	-0.017373038
151	0x3d315ba7	0.043300297
152	0x3d78d7c5	0.06075265
153	0xbcb77368	-0.022393897
154	0xbd2d5675	-0.04231878
155	0x3cc227cc	0.023700617
156	0x3d9212cd	0.07132492
157	0x3d2baa6f	0.041910585
158	0xbc593900	-0.013258219
159	0xbd0478df	-0.032341834
160	0xbc80d4ac	-0.01572641
161	0xbd98b20c	-0.07455835
162	0xbc387291	-0.0112577835
163	0x3d1d1490	0.038349688
164	0x3c0cae3c	0.008586463
165	0x3df51203	0.11966326
166	0x3bdf69b4	0.0068180207
167	0x3c87dc01	0.016584398
168	0x3d9f6e58	0.07784718
169	0xbc25a453	-0.010109979
170	0x3d7d806f	0.061890062
171	0x3c93b392	0.018029962
172	0xbd168063	-0.036743533
173	0xbc564de4	-0.013080094
174	0xbc78aef4	-0.015178431
175	0x3d2e6cc2	0.04258419
176	0xbcd1f23c	-0.025628202
177	0x3d42b0c0	0.047531843
178	0xbd24f488	-0.040272266
179	0xbd1c912f	-0.038224395
180	0xbd453ea6	-0.04815545
181	0xbbf6789c	-0.007521702
182	0x3cb61852	0.022228394
183	0xbd4dc2e3	-0.050234687
184	0xbd5b8938	-0.05359766
185	0x3d38bc17	0.04510125
186	0x3d4831a8	0.04887548
187	0x3b601258	0.0034190621
188	0x3b6e84e8	0.0036395136
189	0xbde0dc00	-0.10979462
190	0xbd69b1f6	-0.057054482
191	0x3d12d125	0.035843987
192	0x3cb4813f	0.022034286
193	0xbcdb959e	-0.026804741
194	0xbced2118	-0.028946444
195	0xbcb4a86a	-0.022052962
196	0x3d9ef57d	0.07761667
197	0x3c97da98	0.01853685
198	0xbd137bf3	-0.03600688
199	0x3c9ee302	0.019395355
200	0x3ce999c1	0.028515698
201	0xbbc03da3	-0.0058667227
202	0x3de4a247	0.111637644
203	0xbab1616a	-0.001353306
204	0xbd2a10d8	-0.04151997
205	0xbd4f96bd	-0.050680865
206	0x3d108393	0.03528173
207	0xbb0d5599	-0.0021565913
208	0x3c9170d0	0.017753989
209	0xbd439cb5	-0.04775687
210	0x3cbe73ab	0.023248514
211	0x3cebe811	0.028797181
212	0x3d2c2a46	0.042032503
213	0xbc0fad19	-0.008769297
214	0xbb2b5834	-0.0026145102
215	0xbc99bd47	-0.018767012
216	0x3c45fdb6	0.012084415
217	0x3dbc854a	0.0920511
218	0xbd84a10d	-0.064760305
219	0xbcc3d3eb	-0.023904761
220	0xbaa27535	-0.001239455
221	0x3c7ceb16	0.015436908
222	0x3be040c0	0.0068436563
223	0xbc42cc7a	-0.011889571
224	0xbda3d03e	-0.079987034
225	0xbd20d275	-0.039263207
226	0xbbd1d9a0	-0.0064041167
227	0xbd8fa47b	-0.07013794
228	0xbca9e0c7	-0.020737065
229	0x3d06da8e	0.032923274
230	0xbc597e58	-0.013274752
231	0xbc255609	-0.010091313
232	0xbd03d641	-0.03218675
233	0x3bce99a9	0.006304939
234	0xbce6eb0f	-0.028188257
235	0x3b0a910f	0.002114359
236	0x3d576209	0.052583728
237	0x3c2f434c	0.010697197
238	0xbd83e712	-0.064405575
239	0xbc7a31ec	-0.015270691
240	0xbc57958b	-0.013158212
241	0xba2d7c59	-0.00066179555
242	0xbccee57d	-0.025255913
243	0xbd2d3c8e	-0.042294078
244	0x3c33364f	0.010938241
245	0x3c5c8eb0	0.013461754
246	0x3cc6a423	0.024248188
247	0xbc81751c	-0.015802912
248	0xbd4edd6c	-0.050504133
249	0x3cd6db7b	0.026227703
250	0x3d95d67c	0.073163
251	0x3d8b2088	0.06793314
252	0xbc623f6d	-0.013809067
253	0xbd64612f	-0.055756744
254	0xbd8d2941	-0.06892634
255	0xbd83022e	-0.063969

network.0.bias f4 [256]
0	0x343227db	1.6592041e-07
1	0xb2a0c051	-1.8713907e-08
2	0x3444c7c0	1.8326591e-07
3	0xb2cd874b	-2.3926665e-08
4	0x80058050	-5.05207e-40
5	0x34de4620	4.1401745e-07
6	0x0005e8da	5.42709e-40
7	0xb443c216	-1.8231398e-07
8	0xb4d668a6	-3.9936748e-07
9	0xb31089e4	-3.3653023e-08
10	0x34d71b6b	4.006682e-07
11	0xb584bc9e	-9.889661e-07
12	0x343f4df4	1.781662e-07
13	0x34bd36bf	3.5243826e-07
14	0x3510ed62	5.398962e-07
15	0x350715d5	5.032319e-07
16	0x340efead	1.3317431e-07
17	0xb504fdd0	-4.954318e-07
18	0x340a615f	1.2887675e-07
19	0xb45e73b5	-2.0717455e-07
20	0xb2eb47ef	-2.7390312e-08
21	0x341c9205	1.4581754e-07
22	0x329eca81	1.8485709e-08
23	0xb4118930	-1.3554086e-07
24	0x33797289	5.8079e-08
25	0xb206c04d	-7.843551e-09
26	0xb4c6bd63	-3.701817e-07
27	0x33ecbd7c	1.10240734e-07
28	0x344efa63	1.9276335e-07
29	0x0005b5b4	5.2436e-40
30	0x330ed56f	3.3256068e-08
31	0xb50ae555	-5.174273e-07
32	0x33db3eda	1.0209415e-07
33	0xb385b3e8	-6.22602e-08
34	0xb4120d1d	-1.360208e-07
35	0xb359c367	-5.0701967e-08
36	0xb380e02d	-6.001242e-08
37	0xb4e9d498	-4.3554314e-07
38	0xb3f67ce0	-1.1477982e-07
39	0xb43cf5c5	-1.7598275e-07
40	0xb50fad84	-5.352415e-07
41	0xb3a0045c	-7.4513736e-08
42	0xb4c8544b	-3.7314234e-07
43	0x34048cfe	1.234475e-07
44	0x334b026a	4.7266816e-08
45	0x34975b20	2.8192244e-07
46	0x344c28e9	1.9013864e-07
47	0x34021fab	1.2118714e-07
48	0x34af0808	3.2602134e-07
49	0xb52575d6	-6.1638764e-07
50	0xb4c6aa48	-3.700427e-07
51	0xb4032b58	-1.2216094e-07
52	0x33f68637	1.1479681e-07
53	0xb2c95a64	-2.3440585e-08
54	0x3398bb05	7.11207e-08
55	0x350d8b3a	5.2729195e-07
56	0x80055a8b	-4.91658e-40
57	0x33c1496f	9.00062e-08
58	0x80059885	-5.13891e-40
59	0xb486e8bc	-2.5128782e-07
60	0x355fc68b	8.336289e-07
61	0x341d12e6	1.462864e-07
62	0xb3bf41db	-8.9061096e-08
63	0xb496a0e9	-2.8056755e-07
64	0x3049f370	7.346932e-10
65	0x34980b7e	2.8320568e-07
66	0x339ddde8	7.351247e-08
67	0xb3acbde7	-8.043917e-08
68	0x348a8333	2.5799963e-07
69	0xb381794f	-6.0290965e-08
70	0xb3263207	-3.8695386e-08
71	0x33e311dd	1.05737605e-07
72	0xb458812a	-2.0163557e-07
73	0xb56a6c41	-8.7329323e-07
74	0x335d2748	5.14913e-08
75	0x31fe65f3	7.403963e-09
76	0xb3aa044d	-7.917024e-08
77	0x8005ae12	-5.21622e-40
78	0xb52acc24	-6.3627e-07
79	0x00056e9e	4.9886e-40
80	0xb3f4c507	-1.13979745e-07
81	0x80059963	-5.14202e-40
82	0xb2b05ddd	-2.053178e-08
83	0x32b333ea	2.086195e-08
84	0x34920ee6	2.720546e-07
85	0x3427b046	1.5617215e-07
86	0x352282a2	6.05398e-07
87	0x34fe13f8	4.7325716e-07
88	0x32b945fe	2.1568663e-08
89	0xb3e09109	-1.04571946e-07
90	0x3481335b	2.4065488e-07
91	0x333bd327	4.3731372e-08
92	0xb3753858	-5.7094752e-08
93	0x354e6168	7.6882725e-07
94	0xb3d5f6c3	-9.963471e-08
95	0xb4a9c90a	-3.1624978e-07
96	0x33224ae6	3.7786684e-08
97	0x33ab0c09	7.964997e-08
98	0xb52ca888	-6.432024e-07
99	0xb40df827	-1.3221926e-07
100	0x3443d4bd	1.8238184e-07
101	0xb3badf6f	-8.701942e-08
102	0xb48fc1c1	-2.67768e-07
103	0x80055ee7	-4.93222e-40
104	0xb585c6ca	-9.967127e-07
105	0x0005df71	5.39333e-40
106	0x340e0f22	1.3230286e-07
107	0xb5255791	-6.1594716e-07
108	0x8005a06e	-5.16729e-40
109	0x333ffe03	4.4701675e-08
110	0x3479d2c2	2.3266605e-07
111	0x3533916c	6.6894313e-07
112	0xb46f313e	-2.2276524e-07
113	0x33788081	5.7858873e-08
114	0x32bb1811	2.178061e-08
115	0x348acf6e	2.5855428e-07
116	0x33f35b80	1.1332213e-07
117	0xb4220ecb	-1.5092807e-07
118	0x34fa571b	4.6629506e-07
119	0x0005a13e	5.1702e-40
120	0x345fdac8	2.0848086e-07
121	0xb309c96d	-3.2080994e-08
122	0x33807949	5.982526e-08
123	0x8005a1f9	-5.17282e-40
124	0x33d21f64	9.784597e-08
125	0xb3aab82d	-7.949743e-08
126	0x338d6709	6.584566e-08
127	0x3486b234	2.5089105e-07
128	0x348429e7	2.4617404e-07
129	0x34a9a17c	3.1596198e-07
130	0x338176c6	6.0286354e-08
131	0xb1370166	-2.66308e-09
132	0x3383ce21	6.1376575e-08
133	0x0005cbd5	5.32299e-40
134	0xb4802e02	-2.3875333e-07
135	0xb484726b	-2.4670166e-07
136	0x34ffab60	4.7622143e-07
137	0x333d2b34	4.4044285e-08
138	0x8005624d	-4.94441e-40
139	0xb3e94e99	-1.0864205e-07
140	0x34187bc2	1.4201126e-07
141	0x34930085	2.7381262e-07
142	0xb1b6cc9f	-5.32016e-09
143	0x0005ad7b	5.2141e-40
144	0xb55df998	-8.269212e-07
145	0x3437eaf8	1.7128684e-07
146	0xb4bacdf0	-3.479504e-07
147	0x34082c77	1.2682163e-07
148	0x33959c24	6.966755e-08
149	0x00061102	5.57114e-40
150	0x34f24464	4.5125773e-07
151	0xb458594d	-2.0149055e-07
152	0x000599d7	5.14365e-40
153	0xb4d6e5b9	-4.0027751e-07
154	0xb1a57584	-4.815492e-09
155	0xb527034a	-6.2217134e-07
156	0x32f6d77c	2.873616e-08
157	0x344335f9	1.8180425e-07
158	0x343362f9	1.670668e-07
159	0x35953baf	1.1118735e-06
160	0x3559fbc6	8.120518e-07
161	0x34b8d005	3.4424025e-07
162	0xb4e9ed94	-4.3572493e-07
163	0x0005e83c	5.42487e-40
164	0xb2ae3b85	-2.0283332e-08
165	0x338812ab	6.336389e-08
166	0x00059f68	5.16362e-40
167	0x35a4c07f	1.2274976e-06
168	0x80056e34	-4.98711e-40
169	0x34688da6	2.1658215e-07
170	0x34992b66	2.8530047e-07
171	0x352d7676	6.4619906e-07
172	0xb351ef47	-4.8879226e-08
173	0xb474a884	-2.2785576e-07
174	0xb5029dfb	-4.8658666e-07
175	0xb3d9f712	-1.0149792e-07
176	0x349eb1db	2.95592e-07
177	0xb4c00729	-3.5767997e-07
178	0x350160c9	4.8197086e-07
179	0x344cc205	1.9069564e-07
180	0x3498de28	2.8473846e-07
181	0xb3a4632b	-7.654884e-08
182	0x34e2a868	4.2218312e-07
183	0xb38030c0	-5.969332e-08
184	0x34523bbc	1.9579505e-07
185	0xb56e57cd	-8.8789676e-07
186	0xb4962613	-2.796738e-07
187	0x32fe2a7e	2.9588815e-08
188	0xb4e2fbaf	-4.2278904e-07
189	0x3516d677	5.619144e-07
190	0x32b46b6a	2.1003604e-08
191	0xb2270e10	-9.723877e-09
192	0xb4038b73	-1.2251057e-07
193	0xb4169912	-1.4025525e-07
194	0x33b3a291	8.364908e-08
195	0x00058255	5.05932e-40
196	0x338fdfae	6.6996435e-08
197	0x80057e64	-5.04518e-40
198	0xb416f456	-1.4058728e-07
199	0x34319d90	1.654173e-07
200	0xb333fe60	-4.1908038e-08
201	0x3342e209	4.5374723e-08
202	0x34655b64	2.1360535e-07
203	0x33b28be3	8.314216e-08
204	0xb356d33f	-5.0017885e-08
205	0xb30c4dda	-3.2667096e-08
206	0x3399b645	7.157772e-08
207	0x34301e64	1.6402333e-07
208	0xb3e34377	-1.0582783e-07
209	0xb49f12e6	-2.9629808e-07
210	0xb3d67474	-9.986334e-08
211	0xb5dfd805	-1.6677665e-06
212	0xb3456cd5	-4.596662e-08
213	0xb413ab35	-1.3752727e-07
214	0xb37a0ee8	-5.8221218e-08
215	0x3398e093	7.1189014e-08
216	0xb454ebbe	-1.9829801e-07
217	0x353d97ae	7.062871e-07
218	0xb1dd16a5	-6.434521e-09
219	0x339f4978	7.4173784e-08
220	0xb282558d	-1.5172896e-08
221	0xb364cf64	-5.3274007e-08
222	0x34811ac1	2.4047588e-07
223	0xb518c6e1	-5.691382e-07
224	0x351812c0	5.66517e-07
225	0x33e5eb99	1.07064984e-07
226	0xb1eb2eae	-6.844707e-09
227	0x336be62e	5.492455e-08
228	0x33a83984	7.833572e-08
229	0xb4c2ec93	-3.6307446e-07
230	0x321c2642	9.089094e-09
231	0x347df351	2.3650979e-07
232	0x33f5b180	1.14409886e-07
233	0xb4613185	-2.0972773e-07
234	0x34b514ee	3.3729106e-07
235	0xae5b6748	-4.9886567e-11
236	0x33c92395	9.366264e-08
237	0x34295640	1.5770729e-07
238	0xb425fd16	-1.5458895e-07
239	0xb397b180	-7.0637725e-08
240	0xb3848a9e	-6.171943e-08
241	0x3360d2db	5.2345836e-08
242	0x8005f3db	-5.46656e-40
243	0xb286da89	-1.5699031e-08
244	0x3480dfb0	2.4004612e-07
245	0x33225097	3.779186e-08
246	0x33d3c4d0	9.861253e-08
247	0xb299a3ed	-1.7886089e-08
248	0xb310ed5c	-3.374349e-08
249	0x34025dff	1.2141389e-07
250	0x8005d0cc	-5.3408e-40
251	0x33dc8815	1.02693015e-07
252	0x35493386	7.495331e-07
253	0xb408c7cb	-1.2738671e-07
254	0xb49a5de9	-2.8753064e-07
255	0xb46f0c48	-2.2263077e-07

network.1.weight f4 [256]
0	0x3e91d3bd	0.28481856
1	0x3e4ff5d7	0.20308624
2	0x3e3fb86d	0.18722697
3	0x3dcb2a02	0.09920122
4	0x3b2bdc27	0.002622375
5	0x3e8d9330	0.27651358
6	0x8000a6e2	-5.9866e-41
7	0x3e31f796	0.17379603
8	0x3e5f92e2	0.21833375
9	0x3de66925	0.112505235
10	0x3e54e90f	0.2079203
11	0x3e8e0014	0.27734435
12	0x3e3f9d9b	0.18712465
13	0x3e954dbb	0.29160866
14	0x3e9732ac	0.29530847
15	0x3e4f4540	0.2024126
16	0x3e2f7e70	0.17138076
17	0x3e87aa27	0.26497003
18	0x3e1eb057	0.15496956
19	0x3e6ca627	0.23110257
20	0x3d8d4088	0.06897074
21	0x3e93c695	0.28862444
22	0x3e8e780e	0.2782597
23	0x3e365081	0.17804147
24	0x3e352b8f	0.17692398
25	0x3daff8be	0.08592366
26	0x3e734382	0.23756221
27	0x3d8e101a	0.06936665
28	0x3e7814d2	0.24226692
29	0x00055abb	4.91725e-40
30	0x3e30e8f4	0.17276365
31	0x3e8ab6a8	0.2709248
32	0x3e1fcae3	0.15604739
33	0x3e706507	0.23476039
34	0x3e611e84	0.21984297
35	0x3e1e8386	0.1547986
36	0x3e3fabc3	0.18717866
37	0x3e95f7d7	0.2929065
38	0x3e1b1778	0.15145671
39	0x3e83d9d3	0.25752124
40	0x3e6461dd	0.22302957
41	0x3e862c8a	0.26205856
42	0x3e5b2f8e	0.2140486
43	0x3e2f0284	0.17090803
44	0x3e961a2c	0.29316843
45	0x3e2f9e14	0.17150146
46	0x3e84cc2f	0.2593703
47	0x3e5e8222	0.21729329
48	0x3e86b463	0.263095
49	0x3e560200	0.208992
50	0x3e48c68d	0.19606991
51	0x3e2f8370	0.17139983
52	0x3e5bd617	0.21468388
53	0x3dd36186	0.103213355
54	0x3e613f47	0.21996795
55	0x3e93a473	0.28836402
56	0x2e9aba11	7.036161e-11
57	0x3e690f96	0.22759852
58	0x00055a85	4.9165e-40
59	0x3e2243cf	0.1584618
60	0x3e7a16eb	0.24422805
61	0x3e2ddec4	0.1697951
62	0x3e56a3de	0.20960948
63	0x3e29c476	0.1657885
64	0x3d213827	0.03936019
65	0x3e7ebff2	0.24877909
66	0x3e5fc167	0.21851121
67	0x3dd8ffab	0.1059564
68	0x3e5f43d0	0.21803212
69	0x3ddc3945	0.10753111
70	0x3e18c7ad	0.1491992
71	0x3e42cb75	0.19022925
72	0x3e3f03c8	0.18653786
73	0x3e7e969b	0.24862139
74	0x3df7e478	0.12104124
75	0x3e4965b6	0.19667706
76	0x3db1ec67	0.08687668
77	0x8005756e	-5.01303e-40
78	0x3e97a04c	0.29614484
79	0x3a47130b	0.0007594085
80	0x3e19f7b2	0.15035895
81	0x80055b27	-4.91877e-40
82	0x3e31c006	0.17358407
83	0x3e222e1c	0.15837902
84	0x3e4f2d7f	0.20232199
85	0x3e838218	0.2568519
86	0x3e9498e0	0.29022884
87	0x3e93e8bf	0.2888851
88	0x3e7afdca	0.24510875
89	0x3e37a683	0.17934613
90	0x3e9d387b	0.30707154
91	0x3e3120ae	0.17297623
92	0x3dcc4a34	0.099750906
93	0x3e97614c	0.2956642
94	0x3e2fe568	0.17177355
95	0x3ea3b492	0.31973702
96	0x3e42c670	0.1902101
97	0x3de738c2	0.112901226
98	0x3e8939d9	0.26801947
99	0x3e8cff63	0.27538595
100	0x3e9356ef	0.28777263
101	0x3e5727d5	0.21011288
102	0x3e942e0a	0.28941375
103	0x80055aee	-4.91797e-40
104	0x3e801559	0.25016287
105	0x35ba2b25	1.3870637e-06
106	0x3e84c534	0.25931704
107	0x3e72d11b	0.2371258
108	0x31bf6599	5.570382e-09
109	0x3df905d2	0.12159313
110	0x3e0cffb2	0.13769415
111	0x3e66dd95	0.22545464
112	0x3e5e8f8e	0.2173445
113	0x3e1256aa	0.14290872
114	0x3e03fe21	0.12889911
115	0x3e4c2806	0.19937143
116	0x3e42f332	0.19038084
117	0x3e2a1acb	0.16611783
118	0x3e4b8e00	0.19878387
119	0x1e89f631	1.4607262e-20
120	0x3e368a66	0.17826232
121	0x3dc61940	0.09672785
122	0x3e4e44f3	0.2014349
123	0x37d62f40	2.553279e-05
124	0x3e4b6ca9	0.1986567
125	0x3e50cc3d	0.2039041
126	0x3e3071c3	0.17230897
127	0x3e7e600a	0.24841323
128	0x3eaadc68	0.33371282
129	0x3e7bbfaa	0.24584833
130	0x3e0a7b21	0.13523532
131	0x3e0215c1	0.12703611
132	0x3e2f7293	0.1713355
133	0x80055857	-4.90868e-40
134	0x3e8e6440	0.2781086
135	0x3e629c9c	0.22130054
136	0x3e5dde46	0.21666822
137	0x3e33f66d	0.17574473
138	0x3b19d1a2	0.0023470898
139	0x3e8167c1	0.2527447
140	0x3e1285e2	0.14308885
141	0x3e6a6380	0.22889519
142	0x3e6d3a85	0.23166855
143	0xb9158d67	-0.00014262424
144	0x3e540d6a	0.20708242
145	0x3e3842fa	0.179943
146	0x3e764611	0.24050166
147	0x3e504908	0.20340359
148	0x3e1aaa13	0.1510394
149	0x8005621e	-4.94375e-40
150	0x3e85b7bb	0.26116738
151	0x3e3110db	0.17291586
152	0x3a7e2445	0.00096947356
153	0x3e88e936	0.26740426
154	0x3e975abe	0.29561418
155	0x3e29b926	0.16574535
156	0x3e310abb	0.1728925
157	0x3e0237dc	0.12716621
158	0x3e70352f	0.23457788
159	0x3e942b44	0.2893926
160	0x3e617806	0.22018442
161	0x3e574349	0.21021761
162	0x3e657c15	0.22410615
163	0x80055b7b	-4.91994e-40
164	0x3dce243c	0.10065505
165	0x3e0498df	0.1294894
166	0x3a0b39c6	0.0005311038
167	0x3e4317d3	0.19052057
168	0x8005a7df	-5.19398e-40
169	0x3e3a888b	0.1821615
170	0x3e2640c3	0.16235642
171	0x3e391d11	0.18077494
172	0x3e20cb73	0.1570261
173	0x3e6c57d1	0.23080374
174	0x3e6eacea	0.23308149
175	0x3e1b6388	0.15174687
176	0x3e5f7f68	0.21825945
177	0x3e5128ca	0.20425716
178	0x3e91f278	0.285053
179	0x3e821341	0.25405315
180	0x3e5ff6bc	0.21871465
181	0x3e49667b	0.19668
182	0x3e90c1b0	0.28272772
183	0x3e4d6eee	0.20061848
184	0x3e6d4499	0.23170699
185	0x3ea550cc	0.32288206
186	0x3e81dfad	0.25365964
187	0x3e02dbd5	0.12779172
188	0x3e6f0d2e	0.23344871
189	0x3e6a4276	0.22876915
190	0x3e688a83	0.22709088
191	0x3e1483ed	0.1450345
192	0x3e61b0d5	0.22040112
193	0x3e4bd8da	0.19906941
194	0x3e807264	0.25087273
195	0x8005595d	-4.91235e-40
196	0x3df0a4b5	0.117501654
197	0x0005a093	5.1678e-40
198	0x3e511c4f	0.20420955
199	0x3e40c8ba	0.18826571
200	0x3e2a3b2f	0.16624139
201	0x3e724a8b	0.23661248
202	0x3e6fe7bc	0.23428243
203	0x3e3bdf64	0.18346936
204	0x3dec8154	0.11548105
205	0x3e1fcca5	0.1560541
206	0x3e4c9159	0.1997732
207	0x3e47a282	0.19495586
208	0x3e3383c1	0.17530729
209	0x3e62367a	0.22091094
210	0x3eaa9ef8	0.3332441
211	0x3ea3c046	0.3198263
212	0x3e867b5a	0.26265985
213	0x3e2f5277	0.17121302
214	0x3e370955	0.17874654
215	0x3e33080f	0.17483543
216	0x3de5f5c6	0.11228518
217	0x3e4dfb18	0.20115316
218	0x3e7e62f5	0.24842437
219	0x3e10817e	0.14111897
220	0x3e1ed5bb	0.15511219
221	0x3e776c52	0.24162415
222	0x3e62aa46	0.22135267
223	0x3e7fc75c	0.24978393
224	0x3e42fb65	0.19041212
225	0x3e476bb0	0.19474673
226	0x3e6a602c	0.22888249
227	0x3e748f11	0.238827
228	0x3e037f95	0.12841637
229	0x3e5fc490	0.21852326
230	0x3e16d768	0.14730608
231	0x3e384fcf	0.17999195
232	0x3e182ada	0.14860097
233	0x3e45e0da	0.19324055
234	0x3e80f373	0.25185737
235	0xba9dfd31	-0.0012053606
236	0x3ded0a02	0.115741745
237	0x3e8b4b30	0.272058
238	0x3e4f7b39	0.2026185
239	0x3e22210c	0.15832919
240	0x3e4e55cd	0.20149918
241	0x3e83578c	0.2565273
242	0x800557e3	-4.90705e-40
243	0x3dd3f5b3	0.10349598
244	0x3e1e5e66	0.15465698
245	0x3e29f1ee	0.16596195
246	0x3dc283d8	0.094978034
247	0x3e045e62	0.12926629
248	0x3e495007	0.19659434
249	0x3e4944f6	0.19655213
250	0x800561d2	-4.94269e-40
251	0x3e1e7acf	0.15476535
252	0x3e8fb823	0.28070173
253	0x3e411dd9	0.18859042
254	0x3e1d2b32	0.15348509
255	0x3e51b5ad	0.2047946

network.1.bias f4 [256]
0	0xbe649b18	-0.22324789
1	0xbde90827	-0.11378508
2	0xbe3ed4dd	-0.18635888
3	0xbdef7b93	-0.11693492
4	0xbc03f150	-0.008053139
5	0xbe344457	-0.17604195
6	0x8040dcc7	-5.956672e-39
7	0xbe13ceb7	-0.14434324
8	0xbe2bfba3	-0.1679521
9	0xbe055e78	-0.13024318
10	0xbdfa71f5	-0.12228767
11	0xbe73b725	-0.23800333
12	0xbd2a006f	-0.04150432
13	0xbe7e388b	-0.24826257
14	0xbe680e12	-0.22661617
15	0xbd883626	-0.06650953
16	0xbdb55dca	-0.088557795
17	0xbe2f9011	-0.171448
18	0xbdc37300	-0.09543419
19	0xbe018949	-0.12650026
20	0xbdc5848b	-0.09644421
21	0xbe42f711	-0.19039561
22	0xbe35857c	-0.17726701
23	0xbde032db	-0.109472
24	0xbd603124	-0.054734364
25	0x3ada98f5	0.0016677665
26	0xbe6ef7a1	-0.2333665
27	0xbd7294de	-0.059224002
28	0xbe51a1ba	-0.2047185
29	0x800591e3	-5.11512e-40
30	0xbdf47379	-0.11936087
31	0xbe496b97	-0.19669949
32	0xbd913615	-0.070903935
33	0xbe775f7f	-0.24157523
34	0xbe5cce6f	-0.21563123
35	0xbd814ff3	-0.06314077
36	0xbdd37ee2	-0.10326935
37	0xbe47e87d	-0.19522281
38	0xbd5d8fdd	-0.054092277
39	0xbe1c7f35	-0.152829
40	0xbe0cfe2f	-0.13768838
41	0xbe345eb5	-0.17614253
42	0xbe46ae41	-0.1940241
43	0xbde182de	-0.11011289
44	0xbe619cd4	-0.22032481
45	0xbde44b45	-0.11147169
46	0xbe405593	-0.18782644
47	0xbe287593	-0.16451101
48	0xbe5e6c5c	-0.21721023
49	0xbdd58e03	-0.10427477
50	0xbd6ee22d	-0.058321167
51	0xbdd2dddb	-0.10296222
52	0xbdcc3d65	-0.099726476
53	0xbdb84d94	-0.08999172
54	0xbe5ea26b	-0.21741645
55	0xbe788ac4	-0.24271685
56	0xa78a17e9	-3.8328618e-15
57	0xbe1206e4	-0.14260441
58	0x9c063f17	-4.4418423e-22
59	0xbc22311a	-0.009899402
60	0xbe456c17	-0.19279514
61	0xbdca22a1	-0.09869886
62	0xbe076a87	-0.1322423
63	0xbde16586	-0.11005692
64	0xbd9e3a27	-0.077259354
65	0xbe42d2f3	-0.19025783
66	0xbe15b709	-0.14620604
67	0xbd8b2223	-0.067936204
68	0xbe2121a8	-0.15735495
69	0xbd9204d5	-0.07129828
70	0xbdaf9dc0	-0.0857501
71	0xbe27247c	-0.16322511
72	0xbe159688	-0.14608204
73	0xbe24d256	-0.16095862
74	0xbd419c03	-0.047267925
75	0xbdaaa970	-0.08333099
76	0xbbb748ed	-0.00559341
77	0xaf49de90	-1.8359914e-10
78	0xbe7942b8	-0.24341857
79	0xb7b53d1b	-2.1605336e-05
80	0xbe476f61	-0.19476081
81	0x800559db	-4.91412e-40
82	0xbe287cba	-0.1645383
83	0xbdd7c234	-0.10535088
84	0xbe10a005	-0.14123543
85	0xbe52f160	-0.2059989
86	0xbe5252dc	-0.20539421
87	0xbe7f2fff	-0.24920653
88	0xbe52302a	-0.20526186
89	0xbda56952	-0.08076729
90	0xbe813aff	-0.25240323
91	0xbce63525	-0.028101513
92	0xbd3960c8	-0.045258313
93	0xbe367b06	-0.17820367
94	0xbdde08c4	-0.10841516
95	0xbe865ff4	-0.2624508
96	0xbe3d7f46	-0.18505582
97	0xbdf3f521	-0.11911989
98	0xbe6530f3	-0.22381954
99	0xbe4c2034	-0.1993416
100	0xbe4cb0a3	-0.19989257
101	0xbe409170	-0.1880548
102	0xbe57992d	-0.21054526
103	0x80056307	-4.94702e-40
104	0xbe55b99b	-0.20871584
105	0xad926932	-1.6644994e-11
106	0xbe54a3cf	-0.20765613
107	0xbe03e710	-0.12881112
108	0xb584e6f1	-9.901979e-07
109	0xbdd1080d	-0.10206614
110	0xbc8617c7	-0.01636876
111	0xbdf66ac1	-0.120320804
112	0xbe269a64	-0.16269833
113	0xbdcc09c4	-0.099628
114	0xbdc73b55	-0.097281136
115	0xbdf7c447	-0.12097984
116	0xbe182286	-0.1485692
117	0xbdb8ba6b	-0.090199314
118	0xbde7faca	-0.11327131
119	0x8009240a	-8.39448e-40
120	0xbdbcca00	-0.09218216
121	0xbc882ef5	-0.016623953
122	0xbdb409c9	-0.08790929
123	0xb9780af1	-0.00023655199
124	0xbe0819a0	-0.13291025
125	0xbd6e6626	-0.058202885
126	0xbe0416fb	-0.12899391
127	0xbe44828d	-0.19190426
128	0xbe771bbf	-0.24131678
129	0xbe4adaaa	-0.19809976
130	0xbd3be89f	-0.04587614
131	0xbd6ec049	-0.058288846
132	0xbd8dfe70	-0.06933296
133	0x8005d1fb	-5.34504e-40
134	0xbe4de74d	-0.20107765
135	0xbe42eb26	-0.19035015
136	0xbddf9f57	-0.109190635
137	0xbdaafabb	-0.08348604
138	0xb9f9c3c0	-0.00047638826
139	0xbe49b013	-0.19696073
140	0xbd4e7cdc	-0.050412044
141	0xbe673b1d	-0.22581144
142	0xbe43082c	-0.19046086
143	0xb890f337	-6.9117574e-05
144	0xbe040166	-0.12891158
145	0xbda62a5f	-0.081135504
146	0xbe1d008f	-0.15332244
147	0xbd2ed675	-0.04268499
148	0xbda28979	-0.07936377
149	0x800559bf	-4.91372e-40
150	0xbe5784f6	-0.21046814
151	0xbe2bfa9a	-0.16794816
152	0xb9311796	-0.00016888822
153	0xbe3948df	-0.18094204
154	0xbe50a11c	-0.20373958
155	0xbd819592	-0.063273564
156	0xbdce45da	-0.10071917
157	0xbd5df32e	-0.054186992
158	0xbe138c03	-0.14408879
159	0xbe0b4ea2	-0.13604215
160	0xbdeee93f	-0.11665582
161	0xbe39d737	-0.18148504
162	0xbe4ea7c1	-0.2018118
163	0x80056786	-4.96315e-40
164	0xbd64ff5f	-0.055907603
165	0xbe1a523a	-0.1507043
166	0xba2cad3b	-0.00065870926
167	0xbdc08158	-0.0939967
168	0xb786433d	-1.6005355e-05
169	0xbdc3fdf4	-0.09569922
170	0xbda87ae7	-0.08226567
171	0xbd903d18	-0.07042903
172	0xbde01fcd	-0.109435655
173	0xbe4e42c9	-0.20142664
174	0xbe3f3777	-0.18673502
175	0xbdbcb2c4	-0.09213784
176	0xbe1e98cd	-0.15487976
177	0xbe018e59	-0.12651958
178	0xbe2852f0	-0.16437888
179	0xbe56b428	-0.20967162
180	0xbda70a8d	-0.08156309
181	0xbdb5b0bf	-0.08871602
182	0xbe81fbcf	-0.25387427
183	0xbd343651	-0.043997113
184	0xbe1ecad0	-0.15507054
185	0xbe929203	-0.28627023
186	0xbe420eaf	-0.18950914
187	0xbbd447df	-0.0064782943
188	0xbe0d9f1b	-0.13830225
189	0xbe2f7c0e	-0.17137167
190	0xbe1f8bd9	-0.15580691
191	0xbd986798	-0.07441634
192	0xbe345f79	-0.17614545
193	0xbde59bcd	-0.11211357
194	0xbe82f6af	-0.2557883
195	0x950b2aec	-2.8104686e-26
196	0xbd077f73	-0.03308053
197	0xa4282b32	-3.646578e-17
198	0xbe2253bd	-0.15852256
199	0xbdb13580	-0.086527824
200	0xbe053fe1	-0.13012649
201	0xbe42614c	-0.18982428
202	0xbe0646f2	-0.13113001
203	0xbe1540d5	-0.14575513
204	0xbd310535	-0.043217856
205	0xbd96303c	-0.07333419
206	0xbe24db71	-0.16099335
207	0xbe1856fc	-0.14876932
208	0xbdd44fc7	-0.10366779
209	0xbe09ba67	-0.13450013
210	0xbe9ce2d1	-0.30641797
211	0xbe8abcd3	-0.27097186
212	0xbe5e39c9	-0.21701731
213	0xbda78152	-0.08178963
214	0xbd724fe7	-0.059158232
215	0xbe159ca3	-0.14610533
216	0xbd0449a0	-0.032296777
217	0xbd98cb11	-0.07460607
218	0xbe139793	-0.1441329
219	0xbdc4f388	-0.096167624
220	0xbdd6d7c3	-0.10490372
221	0xbe3e4f12	-0.1858485
222	0xbe2c92cb	-0.16852872
223	0xbe361c18	-0.17784154
224	0xbdef4b97	-0.116843395
225	0xbe2cdc00	-0.16880798
226	0xbe19cfb0	-0.15020633
227	0xbe4229c0	-0.18961239
228	0xbcc59c55	-0.024122396
229	0xbdaac948	-0.083391726
230	0xbd7798c3	-0.06044842
231	0xbdae971a	-0.08524914
232	0xbdd1ee8f	-0.102505796
233	0xbe1d293d	-0.15347762
234	0xbe1a4f67	-0.15069352
235	0x3b515134	0.003193927
236	0xbe232ae9	-0.15934338
237	0xbe3fe64b	-0.18740194
238	0xbdc486dc	-0.09596035
239	0xbd46c54c	-0.048528
240	0xbe29c4f1	-0.16579033
241	0xbe3ab7f3	-0.18234234
242	0x800560f9	-4.93965e-40
243	0xbdaac098	-0.083375156
244	0xbd759ccb	-0.059963983
245	0xbca825dc	-0.020525865
246	0xbd0b1cd8	-0.033963054
247	0xbd188cff	-0.03724384
248	0xbdd52a5c	-0.1040847
249	0xbdf8d831	-0.1215061
250	0x80055967	-4.91249e-40
251	0xbd170ee9	-0.036879454
252	0xbe3a661d	-0.18203016
253	0xbe01f0a3	-0.12689452
254	0xbdc6f021	-0.0971377
255	0xbe129cb9	-0.14317597

network.1.running_mean f4 [256]
0	0x3cb2aaf0	0.021810025
1	0x3d77b1af	0.060472187
2	0x3d416c6f	0.04722255
3	0xbd3e2611	-0.04642302
4	0x3961930e	0.00021512454
5	0x3cbe3106	0.023216736
6	0x0000e88d	8.3424e-41
7	0xbdb8abf8	-0.090171754
8	0x3cc52451	0.024065169
9	0xbca942cb	-0.020661732
10	0x3dc08f41	0.094023235
11	0xbcd4720b	-0.025933286
12	0x3d20b63c	0.039236292
13	0x3bb8a6d1	0.0056351204
14	0xbd115e39	-0.03549025
15	0xbd57c076	-0.05267378
16	0xbc043178	-0.008068435
17	0xbde3ebc4	-0.11128953
18	0xbd1b6cbc	-0.037945494
19	0x3c1ba8a7	0.009500659
20	0xbd759d6e	-0.05996459
21	0xbc1d7a9b	-0.009611751
22	0xbd369959	-0.044579837
23	0x3d627744	0.05528952
24	0xbdbe4617	-0.09290712
25	0x3d8cd16b	0.06875881
26	0xbd8fb264	-0.07016447
27	0x3cce228b	0.025162956
28	0xbd64979e	-0.055808656
29	0x000f99c1	1.432689e-39
30	0x3d31723e	0.04332184
31	0x39d7077c	0.00041013572
32	0xbcd8d900	-0.026470661
33	0x3ca79d82	0.020460848
34	0x3c6e4aa4	0.014544163
35	0x397e1f10	0.000242349
36	0xbcb691da	-0.022286344
37	0xbd4bca65	-0.049753565
38	0xbcedb52d	-0.029017055
39	0xbc9e1955	-0.019299189
40	0xbda3dd48	-0.080011904
41	0xbd1f317b	-0.038865548
42	0x3ccff3b5	0.025384763
43	0x3c7bba28	0.015364207
44	0xbc5c1ebe	-0.013435064
45	0x3cf8be1a	0.030364085
46	0x3d2fcbc1	0.042918924
47	0x3c62c0df	0.013839929
48	0xbc3cf019	-0.011531853
49	0x3bfe8fd6	0.0077686114
50	0xbbc83441	-0.006109745
51	0x3d14df10	0.03634554
52	0x3c64b86a	0.013959983
53	0xbd9c21de	-0.07623647
54	0xbc6982f5	-0.014252414
55	0xbc261fe3	-0.010139438
56	0x80027067	-2.23993e-40
57	0x3b991dc9	0.00467274
58	0x800928ea	-8.41197e-40
59	0x3d530389	0.051517043
60	0xbd3df99d	-0.046380628
61	0xbd6de9d2	-0.058084317
62	0x3d2d3f05	0.04229643
63	0xbdc9a4b8	-0.09845871
64	0x3b7c5559	0.003850302
65	0xbceb175c	-0.028697662
66	0xbbe3e6c3	-0.006954999
67	0xbd863a96	-0.06554143
68	0xbdc1e04e	-0.09466611
69	0xbcb59200	-0.022164345
70	0x3c9c4972	0.01907799
71	0x3e19bd7e	0.15013692
72	0x3c401082	0.011722686
73	0xbcc3b54b	-0.023890158
74	0xbdb7f214	-0.089817196
75	0xbdb5ddb9	-0.08880181
76	0x3d52a1fb	0.051424008
77	0x000f1de2	1.388252e-39
78	0xbd4ca61e	-0.04996311
79	0x80187ca8	-2.24877e-39
80	0xbd93a69e	-0.07209514
81	0x80047220	-4.08282e-40
82	0xbcd8d807	-0.026470197
83	0x3c156709	0.009118804
84	0x3cd677d2	0.026180182
85	0x3bdba62e	0.00670316
86	0x3d4ef248	0.050524026
87	0x3d3136a2	0.043264993
88	0x3d4e0377	0.050296273
89	0x3d44810a	0.047974624
90	0xbc91bffc	-0.01779174
91	0x3cd9514a	0.02652802
92	0x3d7a9f90	0.061187327
93	0xbda54006	-0.08068852
94	0xbceb05ac	-0.028689228
95	0x3d1d07b8	0.03833744
96	0x3d8012f0	0.06253612
97	0x3d235a93	0.0398813
98	0x3ce31dd6	0.027724188
99	0xbc89797e	-0.016781565
100	0x3b1a0eea	0.0023507425
101	0xbcfd695d	-0.03093403
102	0xb9848897	-0.0002527877
103	0x80273394	-3.600087e-39
104	0x3c4dbcb3	0.012557196
105	0x001437ff	1.856798e-39
106	0x3dac8efb	0.08425709
107	0x3caffa98	0.021481797
108	0x80025c13	-2.16701e-40
109	0xbd12eab2	-0.035868354
110	0xbce249e3	-0.027623123
111	0xbbe7b16a	-0.00707071
112	0xbcaff038	-0.02147685
113	0x3d16997e	0.036767475
114	0xbd6c04ca	-0.057621755
115	0x3cc239b1	0.02370915
116	0x3cc06108	0.023483768
117	0xbd4c4e6f	-0.049879488
118	0x3da330ba	0.07968278
119	0x0005a17a	5.17104e-40
120	0x3bc02b4a	0.0058645355
121	0x3d421f72	0.04739327
122	0x3c95b424	0.018274374
123	0x24f77bc2	1.0732883e-16
124	0xbe0415bd	-0.12898917
125	0xbd639a03	-0.0555668
126	0x3d141c16	0.036159597
127	0xb9987112	-0.00029075943
128	0x3b10f2be	0.0022117342
129	0xbd56f614	-0.052480772
130	0xbd36092c	-0.04444234
131	0xbd425b8e	-0.047450595
132	0xbd875305	-0.066076316
133	0x0006a32e	6.09551e-40
134	0xbc9bc17b	-0.019013157
135	0x3afc5454	0.0019251206
136	0x3d06dbf8	0.032924622
137	0x3dc10767	0.0942524
138	0x0002977c	2.38013e-40
139	0x3ce981c9	0.02850427
140	0xbce6ac58	-0.028158352
141	0xbb5a9ad4	-0.0033356445
142	0x3c20bda2	0.009810837
143	0x001002e6	1.470408e-39
144	0xbd6f6a1f	-0.058450814
145	0x3d5494db	0.051899772
146	0xbd26596d	-0.040612627
147	0x3cd647db	0.02615731
148	0xbc4b67e1	-0.012414903
149	0x0001b496	1.56618e-40
150	0x3d188b26	0.037242077
151	0x3cfee94d	0.031117106
152	0x0487c0df	3.191547e-36
153	0x3d5b2ec2	0.05351139
154	0x3d191850	0.0373767
155	0x3cb31db9	0.021864759
156	0xbd6dbdc7	-0.058042314
157	0x3bd7b2c9	0.006582592
158	0x3c96cba3	0.018407648
159	0xbb6a8a35	-0.0035787944
160	0xbcab9cd8	-0.020948812
161	0x3bc4fed4	0.006011823
162	0xbd63555f	-0.055501338
163	0x8013cc57	-1.818178e-39
164	0x3d604a63	0.05475844
165	0xbd922309	-0.07135589
166	0x80096312	-8.62059e-40
167	0xbbd4d882	-0.0064955363
168	0x800709e5	-6.46398e-40
169	0xbd836c80	-0.06417179
170	0xbd5fe2ce	-0.054659657
171	0x3d0afd7e	0.033933155
172	0xbdb9d054	-0.090729386
173	0x3b64abca	0.0034892433
174	0xbcc4fea5	-0.024047205
175	0x3d0714e0	0.032978892
176	0xbc0bdb19	-0.008536124
177	0x3d43b2ad	0.04777782
178	0xbd7a3506	-0.061085723
179	0xbc883ed3	-0.01663152
180	0x3be98e83	0.0071275844
181	0xbda2c9d9	-0.07948656
182	0xbbfabe43	-0.0076520755
183	0x3cfb1e82	0.030654196
184	0x3cdb6803	0.026782995
185	0xbd0d58f5	-0.034508664
186	0xbd786e82	-0.060652263
187	0x3db2673c	0.08711097
188	0x3d565ae8	0.05233279
189	0x3c6860a1	0.014183194
190	0xbcf843d1	-0.030305775
191	0xbd046f73	-0.03233285
192	0xbcbcb1fe	-0.023034092
193	0xbb2657f0	-0.0025382005
194	0x3bca1405	0.0061669373
195	0x000c7063	1.142343e-39
196	0x3d25d073	0.040481996
197	0x800f09bf	-1.381029e-39
198	0xbd6e7901	-0.058220867
199	0xbd54896f	-0.05188888
200	0x3aae5821	0.0013301411
201	0xbd29b292	-0.041430064
202	0x3cddd3eb	0.02707859
203	0xbdd0e64e	-0.10200177
204	0xbda845ee	-0.08216463
205	0x3cd38a75	0.025822857
206	0xbca63b56	-0.020291965
207	0xbd2d8cf7	-0.042370763
208	0xbad051cd	-0.0015893519
209	0xbd83e4b1	-0.06440104
210	0xbd5006df	-0.050787803
211	0xbda749ce	-0.08168374
212	0xbd7ce6fc	-0.06174372
213	0x3d08f9d6	0.033441387
214	0x3ce07a7a	0.027402151
215	0x3d3d1207	0.04615977
216	0xbcea130f	-0.028573541
217	0xbccccb87	-0.024999393
218	0xbd154051	-0.03643829
219	0x3d14982b	0.03627793
220	0x3d94e6af	0.07270562
221	0x3cbeed96	0.02330665
222	0xbc7c0292	-0.015381472
223	0x3cc58259	0.024110006
224	0x3d237207	0.039903667
225	0xbc2d2a29	-0.010569134
226	0x3ce43f8c	0.027862333
227	0xbcb5903f	-0.022163508
228	0x3d3d6c96	0.046246134
229	0xbcaadce1	-0.020857276
230	0x3d0efe2c	0.034910366
231	0xbc32d57e	-0.010915158
232	0x3ca5548f	0.020181922
233	0xbd09b37a	-0.033618428
234	0x3d98595d	0.0743892
235	0x399069cf	0.00027544654
236	0xbdb86724	-0.090040475
237	0x3d4c15b5	0.04982539
238	0xbc2cef9b	-0.010555173
239	0xbd56ffbe	-0.05248999
240	0xbc04801c	-0.008087184
241	0xbd44e81f	-0.04807293
242	0x000b93e6	1.063246e-39
243	0xbce2aff4	-0.027671792
244	0x3d7091f6	0.05873295
245	0x3c6d5386	0.014485246
246	0x3d3716d2	0.044699498
247	0xbd92adb2	-0.07162036
248	0x3c1ac0cf	0.009445383
249	0x3d90eb2d	0.07076106
250	0x00155bc3	1.961463e-39
251	0x3c9a9789	0.018871086
252	0x3d740cf1	0.059582654
253	0x3d25e8fa	0.040505387
254	0xbb836ba2	-0.0040106336
255	0x3dacc57e	0.08436106

network.1.running_var f4 [256]
0	0x402eb65c	2.7298803
1	0x40114272	2.2696805
2	0x40021a73	2.0328643
3	0x3f52b886	0.8231281
4	0x38143fba	3.53453e-05
5	0x3fecc144	1.849648
6	0x00000004	6e-45
7	0x40931df7	4.597408
8	0x4014222e	2.3145862
9	0x3fd05451	1.6275731
10	0x40454978	3.0826092
11	0x400e8f37	2.2274911
12	0x406028b8	3.5024853
13	0x403e1fcd	2.970691
14	0x40612613	3.5179489
15	0x3fb5a5a0	1.419117
16	0x40009d8a	2.0096154
17	0x40138cb5	2.305463
18	0x4025a11f	2.587959
19	0x3fcfea79	1.624343
20	0x3f854d57	1.0414227
21	0x4016ac80	2.3542786
22	0x403c2fdf	2.9404218
23	0x3fe95bd3	1.8231148
24	0x40ad724b	5.420202
25	0x4031d3ce	2.7785525
26	0x3fdb646e	1.7140024
27	0x3fbd7181	1.4800264
28	0x403f4b43	2.9889686
29	0x00000004	6e-45
30	0x3fbc4b51	1.4710485
31	0x3fe2ee66	1.7729003
32	0x3ff6c1cb	1.9277891
33	0x4018c053	2.3867385
34	0x4034c94d	2.8247864
35	0x3fda7b9a	1.706897
36	0x404b5ae9	3.1774237
37	0x400e002e	2.218761
38	0x3fcb59dd	1.5886799
39	0x3f5ab62c	0.8543422
40	0x40112759	2.2680266
41	0x405d098e	3.4537082
42	0x40061388	2.094942
43	0x4002b60d	2.0423615
44	0x4004ad70	2.0730858
45	0x4017634a	2.3654351
46	0x405ef445	3.483659
47	0x400cf3a1	2.20237
48	0x4073133f	3.7980497
49	0x3f66fa1a	0.90225375
50	0x3f8b95cf	1.0905093
51	0x406e5397	3.723852
52	0x3febc302	1.8418887
53	0x401a172d	2.4076645
54	0x4053241d	3.2990792
55	0x40009337	2.0089853
56	0x00000004	6e-45
57	0x402d4211	2.7071574
58	0x00000004	6e-45
59	0x3fe735e9	1.8063327
60	0x402aeab5	2.6705754
61	0x3fb2d27b	1.3970484
62	0x3fdc7bc3	1.7225269
63	0x3fff7c3a	1.9959786
64	0x3deaa2a5	0.11456803
65	0x3fdd834f	1.7305697
66	0x3fedf5ad	1.8590599
67	0x4001d736	2.0287604
68	0x3fd72e4f	1.6811007
69	0x3fb2dcff	1.3973693
70	0x3faf660e	1.370302
71	0x401e69fd	2.475219
72	0x400de656	2.2171836
73	0x3ff822e9	1.9385654
74	0x401738d6	2.362844
75	0x408587e9	4.1728406
76	0x403531de	2.8311687
77	0x00000004	6e-45
78	0x4013e3c5	2.310777
79	0x00000004	6e-45
80	0x40561a56	3.3453574
81	0x00000004	6e-45
82	0x3fc126ee	1.5090005
83	0x400eb972	2.2300687
84	0x3fbf7b30	1.4959469
85	0x3fe5841c	1.7930942
86	0x400e9c9e	2.2283092
87	0x3fb1fb68	1.3904848
88	0x4009da1e	2.1539378
89	0x3fe62227	1.7979172
90	0x4050f4e9	3.2649481
91	0x3f270e46	0.65256155
92	0x4015367a	2.33145
93	0x3fc14440	1.5098953
94	0x4002f331	2.0460932
95	0x3ff78cd2	1.933985
96	0x402c7e9e	2.695228
97	0x40335922	2.8023152
98	0x3f83bfe5	1.0292937
99	0x401dc5f7	2.4652078
100	0x3f85d494	1.0455499
101	0x4006c9c5	2.106065
102	0x3f6a115a	0.91432726
103	0x00000004	6e-45
104	0x403c68e9	2.9439032
105	0x00000004	6e-45
106	0x403e2983	2.9712837
107	0x401deebc	2.4676962
108	0x00000004	6e-45
109	0x4025c9c9	2.590441
110	0x3fc0e72d	1.5070549
111	0x3f3ae0d5	0.72999316
112	0x3fbf7e4e	1.496042
113	0x4004508c	2.0674162
114	0x3fcc91dc	1.5982013
115	0x3fdb58a3	1.7136425
116	0x400b51e9	2.1768744
117	0x400d07f9	2.2036116
118	0x400641a5	2.0977566
119	0x00000004	6e-45
120	0x401bf2f7	2.4367044
121	0x3fde5370	1.7369213
122	0x3fa09dac	1.2548118
123	0x0ef1dec3	5.96256e-30
124	0x408a56b8	4.323086
125	0x40695ad9	3.64617
126	0x400cb0ce	2.1982913
127	0x3ffc4275	1.9707781
128	0x3fff1dc1	1.9930955
129	0x3ff917fa	1.9460442
130	0x3fd75c79	1.6825095
131	0x3f96a156	1.1767986
132	0x4016a9cb	2.3541133
133	0x00000004	6e-45
134	0x40383064	2.8779535
135	0x3ff9c4c9	1.9513179
136	0x4008eac4	2.139329
137	0x401b9879	2.4311812
138	0x00000004	6e-45
139	0x404119ac	3.017192
140	0x4068927c	3.6339407
141	0x3fb2813e	1.3945692
142	0x4099e86c	4.809622
143	0x00000004	6e-45
144	0x3ff4ba33	1.9119323
145	0x3fd16f8d	1.6362168
146	0x3ff861c4	1.9404836
147	0x3f9819d4	1.1882882
148	0x3fb067e4	1.3781705
149	0x00000004	6e-45
150	0x3fa10917	1.2580899
151	0x3ff593dd	1.9185749
152	0x00000004	6e-45
153	0x40792350	3.8927803
154	0x40237ac4	2.554368
155	0x3f972a74	1.1809831
156	0x3fcfc46e	1.623182
157	0x4012fb5d	2.296592
158	0x3fe7f308	1.8121042
159	0x402577bd	2.5854332
160	0x3f8dff6c	1.1093574
161	0x3f88a148	1.0674219
162	0x4056eb99	3.3581297
163	0x00000004	6e-45
164	0x4050b37e	3.2609553
165	0x40335f70	2.8027
166	0x00000004	6e-45
167	0x3fbf8d29	1.4964954
168	0x00000004	6e-45
169	0x4065ad63	3.5887077
170	0x402310dc	2.547904
171	0x3fc01bb5	1.5008456
172	0x3fba2ea7	1.4545487
173	0x3fcf0e57	1.6176251
174	0x40170582	2.3597112
175	0x4016f061	2.3584216
176	0x40066c89	2.1003745
177	0x3f991ddc	1.1962237
178	0x4034dc15	2.8259327
179	0x403ff27e	2.9991755
180	0x3ff1fc39	1.8905097
181	0x409296a1	4.5808873
182	0x3f9fa5b2	1.2472441
183	0x3f332019	0.6997085
184	0x408d6464	4.4185047
185	0x40219a6f	2.5250509
186	0x3fd7480e	1.6818864
187	0x40809b71	4.018975
188	0x3fccb830	1.599371
189	0x3f84af95	1.0366083
190	0x400b14c5	2.1731427
191	0x3fc25159	1.5181075
192	0x3fc2f525	1.5231062
193	0x3fe7c849	1.8107997
194	0x400968b8	2.1470165
195	0x00000004	6e-45
196	0x40162fb0	2.3466606
197	0x00000004	6e-45
198	0x3fb140cb	1.3847898
199	0x3fa939bf	1.3220748
200	0x4019fcee	2.4060626
201	0x3fffb80e	1.9978044
202	0x4096c23c	4.7112103
203	0x405e7323	3.4757774
204	0x4023d240	2.5597076
205	0x40156732	2.3344235
206	0x3fee1cd3	1.8602546
207	0x40124a52	2.2857862
208	0x3fc864eb	1.5655798
209	0x401fe89f	2.498573
210	0x3fc5d831	1.5456601
211	0x3fd7e8fb	1.6867975
212	0x3ff582eb	1.9180578
213	0x3f87f322	1.0621073
214	0x3fb099f5	1.3796984
215	0x3fe85ea0	1.8153877
216	0x3fba440b	1.4552015
217	0x3fe34146	1.7754295
218	0x40061774	2.0951815
219	0x3ffe2bdb	1.9857134
220	0x40233ff5	2.5507786
221	0x3fcda9b6	1.6067417
222	0x402be9cd	2.686145
223	0x3fb4bb9a	1.4119751
224	0x4004da4e	2.0758243
225	0x402518f6	2.5796485
226	0x3fd42fd5	1.6577097
227	0x3fb9c2f2	1.4512618
228	0x401c9d67	2.447107
229	0x3fefba45	1.872872
230	0x3fa89fc2	1.3173754
231	0x3f5effc9	0.8710905
232	0x3fec6f48	1.847146
233	0x401650bc	2.3486776
234	0x401324df	2.2991254
235	0x37c66e5b	2.3654828e-05
236	0x40334a11	2.8013957
237	0x4011cc21	2.278084
238	0x400db2fb	2.214049
239	0x40835623	4.1042647
240	0x40206716	2.5062919
241	0x40263229	2.5968115
242	0x00000004	6e-45
243	0x3fdc9c5b	1.7235216
244	0x4003b89b	2.0581424
245	0x402c5467	2.6926515
246	0x3ff4b2f6	1.9117115
247	0x403b1253	2.9229934
248	0x401d0087	2.4531572
249	0x3fb1f5da	1.3903153
250	0x00000004	6e-45
251	0x3ffd325a	1.9780991
252	0x40119bcd	2.2751343
253	0x3fd291c9	1.645074
254	0x3fd80764	1.6877255
255	0x40151f41	2.3300326

network.4.weight f4 [128, 256]
0	0xbcc9090e	-0.02454045
1	0x3d3c37b0	0.045951545
2	0xbbaa803b	-0.0052032745
3	0xb9ddffab	-0.00042342892
4	0x3b631643	0.003465072
5	0x3c19a372	0.009377347
6	0x00059975	5.14227e-40
7	0xbcdd5492	-0.027017865
8	0xbd0df670	-0.03465885
9	0x3b84e966	0.0040561436
10	0xbc13adf6	-0.0090136435
11	0xbcaf3a97	-0.021390243
12	0x3ca06045	0.019577155
13	0x3c1b219e	0.009468464
14	0xbd20073b	-0.039069396
15	0xbd1629a9	-0.036660824
16	0xbda8eb71	-0.08248032
17	0xbc00ae79	-0.0078540975
18	0xbd3bb8fb	-0.045830708
19	0x3d2987d9	0.04138932
20	0x39716cf5	0.0002302414
21	0xbbbeea9c	-0.0058263075
22	0x3cacdc68	0.021101192
23	0x3cc0a471	0.023515912
24	0x3c73435f	0.0148476055
25	0xb91d4c52	-0.00015001118
26	0xbb259a03	-0.00252688
27	0xbd14cd1a	-0.036328413
28	0x3cfb86a9	0.03070386
29	0x8005c462	-5.29626e-40
30	0x3ad0093e	0.0015871895
31	0xbc52729f	-0.012844711
32	0xbd2dded1	-0.042448822
33	0xbd256447	-0.040378835
34	0xbd3e5f2c	-0.04647748
35	0x3d61ada9	0.055097256
36	0xbda8ba04	-0.08238605
37	0x3c7337fa	0.014844889
38	0x3c5cbefb	0.013473268
39	0xbb3c49b9	-0.0028730466
40	0x3b9cce6c	0.0047853496
41	0xbc7526fc	-0.014962908
42	0xbb763f99	-0.0037574528
43	0x3d017bae	0.03161209
44	0xbc86c6dd	-0.016452247
45	0x3d234de5	0.039869208
46	0xba855cc9	-0.0010174747
47	0xbcdb9754	-0.026805557
48	0x3cdcd9e5	0.026959369
49	0xbc91b1eb	-0.017785033
50	0xbc7e5a24	-0.015524421
51	0x3cc8e35d	0.024522478
52	0x3c80fb54	0.015744843
53	0xbd38e2fd	-0.045138348
54	0x3cfebcc6	0.031095874
55	0xbd1eb148	-0.038743287
56	0x00055d2a	4.92598e-40
57	0xbc857e9b	-0.016295722
58	0x192de636	8.990381e-24
59	0x3c4b67ae	0.012414856
60	0x3abb8931	0.0014307854
61	0x3adb3d9e	0.0016726737
62	0x3cac610a	0.021042366
63	0x3c4c092f	0.012453361
64	0xbbd7d98a	-0.006587212
65	0x3d8d3231	0.06894339
66	0x3c5a9ebb	0.013343508
67	0xbcff565d	-0.03116911
68	0x3bbe3fdb	0.005805952
69	0x3d19d605	0.03755762
70	0xbd9032ce	-0.0704094
71	0xbb2d3dd1	-0.002643455
72	0x3c5ad77d	0.0133570405
73	0x3be45a38	0.0069687627
74	0xbca51b36	-0.020154577
75	0x3d417042	0.047226198
76	0x3d0604dc	0.032719478
77	0x2f828b5f	2.374589e-10
78	0x3c89fa35	0.01684294
79	0x1069aff9	4.6086712e-29
80	0xbc9a3fc3	-0.018829232
81	0x0005b97b	5.25715e-40
82	0x3d244cfb	0.040112477
83	0x3c25df01	0.010123969
84	0xbc5833b0	-0.013195917
85	0x3c3eb73f	0.011640369
86	0x3d0b1b7f	0.03396177
87	0xbda6f12e	-0.0815147
88	0xbd978909	-0.07399184
89	0xbd967d39	-0.07348103
90	0xbd404b58	-0.046946853
91	0x3cf6035c	0.030030899
92	0xbd37deb1	-0.04489011
93	0x3d1b91de	0.037980907
94	0x3d2a32e0	0.041552424
95	0x3ca33d46	0.019926678
96	0xbcabcda7	-0.020972086
97	0x3bbcf7ad	0.00576683
98	0xbc0c546e	-0.0085650515
99	0x3c63a499	0.013894224
100	0xbc35a9e1	-0.011087866
101	0x3beb5019	0.0071811792
102	0xbcda63ca	-0.026658911
103	0x80056f41	-4.99088e-40
104	0x3d1b95e0	0.03798473
105	0x00055c28	4.92237e-40
106	0xbd40628b	-0.046968978
107	0x3cae86ca	0.021304507
108	0x8005626a	-4.94482e-40
109	0x3d93ee7f	0.07223224
110	0x38357365	4.3261232e-05
111	0x3baca0f4	0.0052682105
112	0xbcf1b6c2	-0.029506091
113	0x3d3f38c1	0.046684984
114	0x3d19b160	0.037522674
115	0xbd35eb0b	-0.044413608
116	0xbb39f5bc	-0.002837523
117	0x3d183a20	0.037164807
118	0x3d2c02d8	0.0419949
119	0x00056acd	4.9749e-40
120	0xbcc49579	-0.023997055
121	0x3d418581	0.04724646
122	0xbd1f8ddd	-0.03895365
123	0x80055bf8	-4.9217e-40
124	0x3cddf9fb	0.027096739
125	0xbd0c0f53	-0.0341943
126	0x3cc4f273	0.02404139
127	0xbbe5c6d0	-0.0070122257
128	0x3c9f4850	0.019443661
129	0xbcb5646c	-0.022142611
130	0x3ce5d64b	0.028056284
131	0xbd5ca4bd	-0.053868044
132	0x3d063613	0.032766413
133	0x80060b19	-5.54994e-40
134	0xbd9058df	-0.07048201
135	0xba365d36	-0.00069566385
136	0x3b9dfc54	0.0048213396
137	0xbc837b67	-0.016050054
138	0x20ba09e2	3.1516166e-19
139	0xbc206f92	-0.009792225
140	0xbb2dafe6	-0.0026502549
141	0xbcc918e3	-0.024548
142	0x3cab9551	0.020945223
143	0x00055bc0	4.92091e-40
144	0x3c2b5425	0.010457073
145	0xbc94456f	-0.018099515
146	0xbc7701df	-0.01507613
147	0x3a94a7b2	0.0011341481
148	0x3da447f1	0.08021534
149	0x80059264	-5.11693e-40
150	0xbd45632e	-0.04819029
151	0x3cff1e6b	0.031142434
152	0x01c4e0c2	7.232154e-38
153	0xbcadc101	-0.021210195
154	0x3d4b9559	0.049702976
155	0x3c811d14	0.015760936
156	0x3c8a6d03	0.016897684
157	0x3c930f76	0.017951708
158	0xbce81815	-0.028331796
159	0xbc91a5a2	-0.017779175
160	0x3c7ac94d	0.015306783
161	0x3c6d6d9b	0.014491464
162	0x3c6568ed	0.014002067
163	0x0005751e	5.01191e-40
164	0x3bf9757a	0.0076128813
165	0xbc326abb	-0.010889704
166	0x17c459d0	1.2688875e-24
167	0xbcf810c4	-0.030281432
168	0x800558f1	-4.91084e-40
169	0x3cc02e67	0.023459626
170	0x3db0b5ca	0.086284235
171	0xbde731c4	-0.11288789
172	0xbca31787	-0.01990868
173	0x3d4b7217	0.04966935
174	0x3d05ee72	0.032698102
175	0x3d93cc87	0.07216745
176	0xbc43a3a1	-0.011940868
177	0xbd930141	-0.071779735
178	0x3bbf2fcc	0.0058345553
179	0xbd079423	-0.03310026
180	0xbc8be33d	-0.01707613
181	0xbd393b57	-0.045222607
182	0xba4c04d5	-0.00077827025
183	0xbcf722f5	-0.030168036
184	0xbb813153	-0.0039426475
185	0xbb80bef8	-0.0039290152
186	0x3da33abb	0.07970186
187	0xbccf5840	-0.025310636
188	0xbcdde4d1	-0.027086647
189	0xbd2dd426	-0.04243865
190	0xb9207f53	-0.00015306221
191	0x3d844445	0.06458334
192	0x3d0f4ff9	0.034988377
193	0x3bff40f8	0.0077897273
194	0xbd442e3d	-0.04789566
195	0x92aea283	-1.1021006e-27
196	0x3d7bf2a7	0.06151071
197	0x80056125	-4.94026e-40
198	0x3d391237	0.045183387
199	0x3d29503e	0.04133629
200	0xbcd5c3e6	-0.026094388
201	0x3cb7e011	0.02244571
202	0x3cf00817	0.029300733
203	0xbb8ffb53	-0.004393974
204	0xbc79c3c4	-0.015244428
205	0x3c71de72	0.014762508
206	0x3c8900ae	0.016723957
207	0x3d032c83	0.03202487
208	0x3cfe76f2	0.031062577
209	0x3ac645e6	0.0015127033
210	0xbcf82f09	-0.030295866
211	0x3c65f493	0.014035362
212	0x3cd8260d	0.026385332
213	0x3cbc0df1	0.022955867
214	0x3cddeee8	0.027091458
215	0xbd3869a7	-0.045022633
216	0xbc1e0b04	-0.009646181
217	0x3c8d9f97	0.017288012
218	0xbb17c9a6	-0.0023160963
219	0xbc2d615e	-0.010582296
220	0x3c45148d	0.0120288255
221	0xbd7a8a09	-0.061166797
222	0x3d89a099	0.06720085
223	0x3bba6e3b	0.00568941
224	0x3d367566	0.044545554
225	0xbcbae664	-0.022814937
226	0x3d0aaae5	0.033854384
227	0x3af0f8e8	0.0018384727
228	0x3cdba459	0.026811766
229	0xbdaeb929	-0.0853141
230	0x3d7a4327	0.061099198
231	0xbb8db3fd	-0.004324435
232	0x3df49c37	0.11943858
233	0x3c060ac4	0.008181278
234	0x3cdd9287	0.027047409
235	0x399912cf	0.00029196448
236	0xbcc87d76	-0.024473887
237	0x3d1aa831	0.037758056
238	0xbd6bc135	-0.057557303
239	0x3c999bfe	0.01875114
240	0xbc416626	-0.011804139
241	0x3d7d3bca	0.061824597
242	0x80059151	-5.11307e-40
243	0xbbb1e987	-0.00542945
244	0x3cc34062	0.023834411
245	0xbcbda5dc	-0.023150377
246	0xbd3fc877	-0.046822038
247	0x3c747e4f	0.014922692
248	0x3c87e423	0.016588276
249	0x3d32a793	0.043616842
250	0x80059cc0	-5.15409e-40
251	0xbc85b021	-0.016319336
252	0x3c94024f	0.018067507
253	0xbd006a4b	-0.03135137
254	0xbc3a284e	-0.011362148
255	0xbd10a023	-0.03530897
